<?xml version="1.0"?>
<net name="main_graph" version="11">
	<layers>
		<layer id="0" name="input" type="Parameter" version="opset1">
			<data shape="?,3,160,160" element_type="f32" />
			<output>
				<port id="0" precision="FP32" names="input">
					<dim>-1</dim>
					<dim>3</dim>
					<dim>160</dim>
					<dim>160</dim>
				</port>
			</output>
		</layer>
		<layer id="1" name="conv_stem.weight_compressed" type="Const" version="opset1">
			<data element_type="f16" shape="16, 3, 3, 3" offset="0" size="864" />
			<output>
				<port id="0" precision="FP16" names="conv_stem.weight">
					<dim>16</dim>
					<dim>3</dim>
					<dim>3</dim>
					<dim>3</dim>
				</port>
			</output>
		</layer>
		<layer id="2" name="conv_stem.weight" type="Convert" version="opset1">
			<data destination_type="f32" />
			<rt_info>
				<attribute name="decompression" version="0" />
			</rt_info>
			<input>
				<port id="0" precision="FP16">
					<dim>16</dim>
					<dim>3</dim>
					<dim>3</dim>
					<dim>3</dim>
				</port>
			</input>
			<output>
				<port id="1" precision="FP32">
					<dim>16</dim>
					<dim>3</dim>
					<dim>3</dim>
					<dim>3</dim>
				</port>
			</output>
		</layer>
		<layer id="3" name="node_Conv_1934/WithoutBiases" type="Convolution" version="opset1">
			<data strides="2, 2" dilations="1, 1" pads_begin="1, 1" pads_end="1, 1" auto_pad="explicit" />
			<input>
				<port id="0" precision="FP32">
					<dim>-1</dim>
					<dim>3</dim>
					<dim>160</dim>
					<dim>160</dim>
				</port>
				<port id="1" precision="FP32">
					<dim>16</dim>
					<dim>3</dim>
					<dim>3</dim>
					<dim>3</dim>
				</port>
			</input>
			<output>
				<port id="2" precision="FP32">
					<dim>-1</dim>
					<dim>16</dim>
					<dim>80</dim>
					<dim>80</dim>
				</port>
			</output>
		</layer>
		<layer id="4" name="conv_stem.weight_bias_compressed" type="Const" version="opset1">
			<data element_type="f16" shape="16" offset="864" size="32" />
			<output>
				<port id="0" precision="FP16" names="conv_stem.weight_bias">
					<dim>16</dim>
				</port>
			</output>
		</layer>
		<layer id="5" name="conv_stem.weight_bias" type="Convert" version="opset1">
			<data destination_type="f32" />
			<rt_info>
				<attribute name="decompression" version="0" />
			</rt_info>
			<input>
				<port id="0" precision="FP16">
					<dim>16</dim>
				</port>
			</input>
			<output>
				<port id="1" precision="FP32">
					<dim>16</dim>
				</port>
			</output>
		</layer>
		<layer id="6" name="Constant_200" type="Const" version="opset1">
			<data element_type="i64" shape="1" offset="896" size="8" />
			<rt_info>
				<attribute name="precise" version="0" />
			</rt_info>
			<output>
				<port id="0" precision="I64">
					<dim>1</dim>
				</port>
			</output>
		</layer>
		<layer id="7" name="ShapeOf_206" type="ShapeOf" version="opset3">
			<data output_type="i64" />
			<input>
				<port id="0" precision="FP32">
					<dim>16</dim>
				</port>
			</input>
			<output>
				<port id="1" precision="I64">
					<dim>1</dim>
				</port>
			</output>
		</layer>
		<layer id="8" name="ShapeOf_198" type="ShapeOf" version="opset3">
			<data output_type="i64" />
			<input>
				<port id="0" precision="FP32">
					<dim>-1</dim>
					<dim>16</dim>
					<dim>80</dim>
					<dim>80</dim>
				</port>
			</input>
			<output>
				<port id="1" precision="I64">
					<dim>4</dim>
				</port>
			</output>
		</layer>
		<layer id="9" name="ShapeOf_199" type="ShapeOf" version="opset3">
			<data output_type="i64" />
			<input>
				<port id="0" precision="I64">
					<dim>4</dim>
				</port>
			</input>
			<output>
				<port id="1" precision="I64">
					<dim>1</dim>
				</port>
			</output>
		</layer>
		<layer id="10" name="Constant_201" type="Const" version="opset1">
			<data element_type="i64" shape="1" offset="904" size="8" />
			<rt_info>
				<attribute name="precise" version="0" />
			</rt_info>
			<output>
				<port id="0" precision="I64">
					<dim>1</dim>
				</port>
			</output>
		</layer>
		<layer id="11" name="Subtract_202" type="Subtract" version="opset1">
			<data auto_broadcast="numpy" />
			<input>
				<port id="0" precision="I64">
					<dim>1</dim>
				</port>
				<port id="1" precision="I64">
					<dim>1</dim>
				</port>
			</input>
			<output>
				<port id="2" precision="I64">
					<dim>1</dim>
				</port>
			</output>
		</layer>
		<layer id="12" name="Broadcast_203" type="Broadcast" version="opset3">
			<data mode="numpy" />
			<input>
				<port id="0" precision="I64">
					<dim>1</dim>
				</port>
				<port id="1" precision="I64">
					<dim>1</dim>
				</port>
			</input>
			<output>
				<port id="2" precision="I64">
					<dim>2</dim>
				</port>
			</output>
		</layer>
		<layer id="13" name="Concat_207" type="Concat" version="opset1">
			<data axis="0" />
			<input>
				<port id="0" precision="I64">
					<dim>1</dim>
				</port>
				<port id="1" precision="I64">
					<dim>1</dim>
				</port>
				<port id="2" precision="I64">
					<dim>2</dim>
				</port>
			</input>
			<output>
				<port id="3" precision="I64">
					<dim>4</dim>
				</port>
			</output>
		</layer>
		<layer id="14" name="Reshape_208" type="Reshape" version="opset1">
			<data special_zero="false" />
			<input>
				<port id="0" precision="FP32">
					<dim>16</dim>
				</port>
				<port id="1" precision="I64">
					<dim>4</dim>
				</port>
			</input>
			<output>
				<port id="2" precision="FP32">
					<dim>1</dim>
					<dim>16</dim>
					<dim>1</dim>
					<dim>1</dim>
				</port>
			</output>
		</layer>
		<layer id="15" name="node_Conv_1934" type="Add" version="opset1">
			<data auto_broadcast="numpy" />
			<input>
				<port id="0" precision="FP32">
					<dim>-1</dim>
					<dim>16</dim>
					<dim>80</dim>
					<dim>80</dim>
				</port>
				<port id="1" precision="FP32">
					<dim>1</dim>
					<dim>16</dim>
					<dim>1</dim>
					<dim>1</dim>
				</port>
			</input>
			<output>
				<port id="2" precision="FP32" names="getitem">
					<dim>-1</dim>
					<dim>16</dim>
					<dim>80</dim>
					<dim>80</dim>
				</port>
			</output>
		</layer>
		<layer id="16" name="node_relu" type="ReLU" version="opset1">
			<input>
				<port id="0" precision="FP32">
					<dim>-1</dim>
					<dim>16</dim>
					<dim>80</dim>
					<dim>80</dim>
				</port>
			</input>
			<output>
				<port id="1" precision="FP32" names="relu">
					<dim>-1</dim>
					<dim>16</dim>
					<dim>80</dim>
					<dim>80</dim>
				</port>
			</output>
		</layer>
		<layer id="17" name="blocks.0.0.ghost1.primary_conv.0.weight_compressed" type="Const" version="opset1">
			<data element_type="f16" shape="8, 16, 1, 1" offset="912" size="256" />
			<output>
				<port id="0" precision="FP16" names="blocks.0.0.ghost1.primary_conv.0.weight">
					<dim>8</dim>
					<dim>16</dim>
					<dim>1</dim>
					<dim>1</dim>
				</port>
			</output>
		</layer>
		<layer id="18" name="blocks.0.0.ghost1.primary_conv.0.weight" type="Convert" version="opset1">
			<data destination_type="f32" />
			<rt_info>
				<attribute name="decompression" version="0" />
			</rt_info>
			<input>
				<port id="0" precision="FP16">
					<dim>8</dim>
					<dim>16</dim>
					<dim>1</dim>
					<dim>1</dim>
				</port>
			</input>
			<output>
				<port id="1" precision="FP32">
					<dim>8</dim>
					<dim>16</dim>
					<dim>1</dim>
					<dim>1</dim>
				</port>
			</output>
		</layer>
		<layer id="19" name="node_Conv_1936/WithoutBiases" type="Convolution" version="opset1">
			<data strides="1, 1" dilations="1, 1" pads_begin="0, 0" pads_end="0, 0" auto_pad="explicit" />
			<input>
				<port id="0" precision="FP32">
					<dim>-1</dim>
					<dim>16</dim>
					<dim>80</dim>
					<dim>80</dim>
				</port>
				<port id="1" precision="FP32">
					<dim>8</dim>
					<dim>16</dim>
					<dim>1</dim>
					<dim>1</dim>
				</port>
			</input>
			<output>
				<port id="2" precision="FP32">
					<dim>-1</dim>
					<dim>8</dim>
					<dim>80</dim>
					<dim>80</dim>
				</port>
			</output>
		</layer>
		<layer id="20" name="blocks.0.0.ghost1.primary_conv.0.weight_bias_compressed" type="Const" version="opset1">
			<data element_type="f16" shape="8" offset="1168" size="16" />
			<output>
				<port id="0" precision="FP16" names="blocks.0.0.ghost1.primary_conv.0.weight_bias">
					<dim>8</dim>
				</port>
			</output>
		</layer>
		<layer id="21" name="blocks.0.0.ghost1.primary_conv.0.weight_bias" type="Convert" version="opset1">
			<data destination_type="f32" />
			<rt_info>
				<attribute name="decompression" version="0" />
			</rt_info>
			<input>
				<port id="0" precision="FP16">
					<dim>8</dim>
				</port>
			</input>
			<output>
				<port id="1" precision="FP32">
					<dim>8</dim>
				</port>
			</output>
		</layer>
		<layer id="22" name="Constant_214" type="Const" version="opset1">
			<data element_type="i64" shape="1" offset="896" size="8" />
			<rt_info>
				<attribute name="precise" version="0" />
			</rt_info>
			<output>
				<port id="0" precision="I64">
					<dim>1</dim>
				</port>
			</output>
		</layer>
		<layer id="23" name="ShapeOf_220" type="ShapeOf" version="opset3">
			<data output_type="i64" />
			<input>
				<port id="0" precision="FP32">
					<dim>8</dim>
				</port>
			</input>
			<output>
				<port id="1" precision="I64">
					<dim>1</dim>
				</port>
			</output>
		</layer>
		<layer id="24" name="ShapeOf_212" type="ShapeOf" version="opset3">
			<data output_type="i64" />
			<input>
				<port id="0" precision="FP32">
					<dim>-1</dim>
					<dim>8</dim>
					<dim>80</dim>
					<dim>80</dim>
				</port>
			</input>
			<output>
				<port id="1" precision="I64">
					<dim>4</dim>
				</port>
			</output>
		</layer>
		<layer id="25" name="ShapeOf_213" type="ShapeOf" version="opset3">
			<data output_type="i64" />
			<input>
				<port id="0" precision="I64">
					<dim>4</dim>
				</port>
			</input>
			<output>
				<port id="1" precision="I64">
					<dim>1</dim>
				</port>
			</output>
		</layer>
		<layer id="26" name="Constant_215" type="Const" version="opset1">
			<data element_type="i64" shape="1" offset="904" size="8" />
			<rt_info>
				<attribute name="precise" version="0" />
			</rt_info>
			<output>
				<port id="0" precision="I64">
					<dim>1</dim>
				</port>
			</output>
		</layer>
		<layer id="27" name="Subtract_216" type="Subtract" version="opset1">
			<data auto_broadcast="numpy" />
			<input>
				<port id="0" precision="I64">
					<dim>1</dim>
				</port>
				<port id="1" precision="I64">
					<dim>1</dim>
				</port>
			</input>
			<output>
				<port id="2" precision="I64">
					<dim>1</dim>
				</port>
			</output>
		</layer>
		<layer id="28" name="Broadcast_217" type="Broadcast" version="opset3">
			<data mode="numpy" />
			<input>
				<port id="0" precision="I64">
					<dim>1</dim>
				</port>
				<port id="1" precision="I64">
					<dim>1</dim>
				</port>
			</input>
			<output>
				<port id="2" precision="I64">
					<dim>2</dim>
				</port>
			</output>
		</layer>
		<layer id="29" name="Concat_221" type="Concat" version="opset1">
			<data axis="0" />
			<input>
				<port id="0" precision="I64">
					<dim>1</dim>
				</port>
				<port id="1" precision="I64">
					<dim>1</dim>
				</port>
				<port id="2" precision="I64">
					<dim>2</dim>
				</port>
			</input>
			<output>
				<port id="3" precision="I64">
					<dim>4</dim>
				</port>
			</output>
		</layer>
		<layer id="30" name="Reshape_222" type="Reshape" version="opset1">
			<data special_zero="false" />
			<input>
				<port id="0" precision="FP32">
					<dim>8</dim>
				</port>
				<port id="1" precision="I64">
					<dim>4</dim>
				</port>
			</input>
			<output>
				<port id="2" precision="FP32">
					<dim>1</dim>
					<dim>8</dim>
					<dim>1</dim>
					<dim>1</dim>
				</port>
			</output>
		</layer>
		<layer id="31" name="node_Conv_1936" type="Add" version="opset1">
			<data auto_broadcast="numpy" />
			<input>
				<port id="0" precision="FP32">
					<dim>-1</dim>
					<dim>8</dim>
					<dim>80</dim>
					<dim>80</dim>
				</port>
				<port id="1" precision="FP32">
					<dim>1</dim>
					<dim>8</dim>
					<dim>1</dim>
					<dim>1</dim>
				</port>
			</input>
			<output>
				<port id="2" precision="FP32" names="getitem_3">
					<dim>-1</dim>
					<dim>8</dim>
					<dim>80</dim>
					<dim>80</dim>
				</port>
			</output>
		</layer>
		<layer id="32" name="node_relu_1" type="ReLU" version="opset1">
			<input>
				<port id="0" precision="FP32">
					<dim>-1</dim>
					<dim>8</dim>
					<dim>80</dim>
					<dim>80</dim>
				</port>
			</input>
			<output>
				<port id="1" precision="FP32" names="relu_1">
					<dim>-1</dim>
					<dim>8</dim>
					<dim>80</dim>
					<dim>80</dim>
				</port>
			</output>
		</layer>
		<layer id="33" name="blocks.0.0.ghost1.cheap_operation.0.weight_compressed" type="Const" version="opset1">
			<data element_type="f16" shape="8, 1, 3, 3" offset="1184" size="144" />
			<output>
				<port id="0" precision="FP16" names="blocks.0.0.ghost1.cheap_operation.0.weight">
					<dim>8</dim>
					<dim>1</dim>
					<dim>3</dim>
					<dim>3</dim>
				</port>
			</output>
		</layer>
		<layer id="34" name="blocks.0.0.ghost1.cheap_operation.0.weight" type="Convert" version="opset1">
			<data destination_type="f32" />
			<rt_info>
				<attribute name="decompression" version="0" />
			</rt_info>
			<input>
				<port id="0" precision="FP16">
					<dim>8</dim>
					<dim>1</dim>
					<dim>3</dim>
					<dim>3</dim>
				</port>
			</input>
			<output>
				<port id="1" precision="FP32">
					<dim>8</dim>
					<dim>1</dim>
					<dim>3</dim>
					<dim>3</dim>
				</port>
			</output>
		</layer>
		<layer id="35" name="Constant_227" type="Const" version="opset1">
			<data element_type="i64" shape="1" offset="1328" size="8" />
			<rt_info>
				<attribute name="precise" version="0" />
			</rt_info>
			<output>
				<port id="0" precision="I64">
					<dim>1</dim>
				</port>
			</output>
		</layer>
		<layer id="36" name="ShapeOf_228" type="ShapeOf" version="opset3">
			<data output_type="i64" />
			<input>
				<port id="0" precision="FP32">
					<dim>8</dim>
					<dim>1</dim>
					<dim>3</dim>
					<dim>3</dim>
				</port>
			</input>
			<output>
				<port id="1" precision="I64">
					<dim>4</dim>
				</port>
			</output>
		</layer>
		<layer id="37" name="Constant_225" type="Const" version="opset1">
			<data element_type="i64" shape="" offset="1336" size="8" />
			<rt_info>
				<attribute name="precise" version="0" />
			</rt_info>
			<output>
				<port id="0" precision="I64" />
			</output>
		</layer>
		<layer id="38" name="Constant_226" type="Const" version="opset1">
			<data element_type="i64" shape="2" offset="1344" size="16" />
			<rt_info>
				<attribute name="precise" version="0" />
			</rt_info>
			<output>
				<port id="0" precision="I64">
					<dim>2</dim>
				</port>
			</output>
		</layer>
		<layer id="39" name="VariadicSplit_229" type="VariadicSplit" version="opset1">
			<input>
				<port id="0" precision="I64">
					<dim>4</dim>
				</port>
				<port id="1" precision="I64" />
				<port id="2" precision="I64">
					<dim>2</dim>
				</port>
			</input>
			<output>
				<port id="3" precision="I64">
					<dim>1</dim>
				</port>
				<port id="4" precision="I64">
					<dim>3</dim>
				</port>
			</output>
		</layer>
		<layer id="40" name="Divide_230" type="Divide" version="opset1">
			<data auto_broadcast="numpy" m_pythondiv="true" />
			<input>
				<port id="0" precision="I64">
					<dim>1</dim>
				</port>
				<port id="1" precision="I64">
					<dim>1</dim>
				</port>
			</input>
			<output>
				<port id="2" precision="I64">
					<dim>1</dim>
				</port>
			</output>
		</layer>
		<layer id="41" name="Concat_231" type="Concat" version="opset1">
			<data axis="0" />
			<input>
				<port id="0" precision="I64">
					<dim>1</dim>
				</port>
				<port id="1" precision="I64">
					<dim>1</dim>
				</port>
				<port id="2" precision="I64">
					<dim>3</dim>
				</port>
			</input>
			<output>
				<port id="3" precision="I64">
					<dim>5</dim>
				</port>
			</output>
		</layer>
		<layer id="42" name="Reshape_232" type="Reshape" version="opset1">
			<data special_zero="false" />
			<input>
				<port id="0" precision="FP32">
					<dim>8</dim>
					<dim>1</dim>
					<dim>3</dim>
					<dim>3</dim>
				</port>
				<port id="1" precision="I64">
					<dim>5</dim>
				</port>
			</input>
			<output>
				<port id="2" precision="FP32">
					<dim>8</dim>
					<dim>1</dim>
					<dim>1</dim>
					<dim>3</dim>
					<dim>3</dim>
				</port>
			</output>
		</layer>
		<layer id="43" name="node_Conv_1938/WithoutBiases" type="GroupConvolution" version="opset1">
			<data strides="1, 1" pads_begin="1, 1" pads_end="1, 1" dilations="1, 1" auto_pad="explicit" />
			<input>
				<port id="0" precision="FP32">
					<dim>-1</dim>
					<dim>8</dim>
					<dim>80</dim>
					<dim>80</dim>
				</port>
				<port id="1" precision="FP32">
					<dim>8</dim>
					<dim>1</dim>
					<dim>1</dim>
					<dim>3</dim>
					<dim>3</dim>
				</port>
			</input>
			<output>
				<port id="2" precision="FP32">
					<dim>-1</dim>
					<dim>8</dim>
					<dim>80</dim>
					<dim>80</dim>
				</port>
			</output>
		</layer>
		<layer id="44" name="blocks.0.0.ghost1.cheap_operation.0.weight_bias_compressed" type="Const" version="opset1">
			<data element_type="f16" shape="8" offset="1360" size="16" />
			<output>
				<port id="0" precision="FP16" names="blocks.0.0.ghost1.cheap_operation.0.weight_bias">
					<dim>8</dim>
				</port>
			</output>
		</layer>
		<layer id="45" name="blocks.0.0.ghost1.cheap_operation.0.weight_bias" type="Convert" version="opset1">
			<data destination_type="f32" />
			<rt_info>
				<attribute name="decompression" version="0" />
			</rt_info>
			<input>
				<port id="0" precision="FP16">
					<dim>8</dim>
				</port>
			</input>
			<output>
				<port id="1" precision="FP32">
					<dim>8</dim>
				</port>
			</output>
		</layer>
		<layer id="46" name="Constant_274" type="Const" version="opset1">
			<data element_type="i64" shape="1" offset="896" size="8" />
			<rt_info>
				<attribute name="precise" version="0" />
			</rt_info>
			<output>
				<port id="0" precision="I64">
					<dim>1</dim>
				</port>
			</output>
		</layer>
		<layer id="47" name="ShapeOf_280" type="ShapeOf" version="opset3">
			<data output_type="i64" />
			<input>
				<port id="0" precision="FP32">
					<dim>8</dim>
				</port>
			</input>
			<output>
				<port id="1" precision="I64">
					<dim>1</dim>
				</port>
			</output>
		</layer>
		<layer id="48" name="ShapeOf_272" type="ShapeOf" version="opset3">
			<data output_type="i64" />
			<input>
				<port id="0" precision="FP32">
					<dim>-1</dim>
					<dim>8</dim>
					<dim>80</dim>
					<dim>80</dim>
				</port>
			</input>
			<output>
				<port id="1" precision="I64">
					<dim>4</dim>
				</port>
			</output>
		</layer>
		<layer id="49" name="ShapeOf_273" type="ShapeOf" version="opset3">
			<data output_type="i64" />
			<input>
				<port id="0" precision="I64">
					<dim>4</dim>
				</port>
			</input>
			<output>
				<port id="1" precision="I64">
					<dim>1</dim>
				</port>
			</output>
		</layer>
		<layer id="50" name="Constant_275" type="Const" version="opset1">
			<data element_type="i64" shape="1" offset="904" size="8" />
			<rt_info>
				<attribute name="precise" version="0" />
			</rt_info>
			<output>
				<port id="0" precision="I64">
					<dim>1</dim>
				</port>
			</output>
		</layer>
		<layer id="51" name="Subtract_276" type="Subtract" version="opset1">
			<data auto_broadcast="numpy" />
			<input>
				<port id="0" precision="I64">
					<dim>1</dim>
				</port>
				<port id="1" precision="I64">
					<dim>1</dim>
				</port>
			</input>
			<output>
				<port id="2" precision="I64">
					<dim>1</dim>
				</port>
			</output>
		</layer>
		<layer id="52" name="Broadcast_277" type="Broadcast" version="opset3">
			<data mode="numpy" />
			<input>
				<port id="0" precision="I64">
					<dim>1</dim>
				</port>
				<port id="1" precision="I64">
					<dim>1</dim>
				</port>
			</input>
			<output>
				<port id="2" precision="I64">
					<dim>2</dim>
				</port>
			</output>
		</layer>
		<layer id="53" name="Concat_281" type="Concat" version="opset1">
			<data axis="0" />
			<input>
				<port id="0" precision="I64">
					<dim>1</dim>
				</port>
				<port id="1" precision="I64">
					<dim>1</dim>
				</port>
				<port id="2" precision="I64">
					<dim>2</dim>
				</port>
			</input>
			<output>
				<port id="3" precision="I64">
					<dim>4</dim>
				</port>
			</output>
		</layer>
		<layer id="54" name="Reshape_282" type="Reshape" version="opset1">
			<data special_zero="false" />
			<input>
				<port id="0" precision="FP32">
					<dim>8</dim>
				</port>
				<port id="1" precision="I64">
					<dim>4</dim>
				</port>
			</input>
			<output>
				<port id="2" precision="FP32">
					<dim>1</dim>
					<dim>8</dim>
					<dim>1</dim>
					<dim>1</dim>
				</port>
			</output>
		</layer>
		<layer id="55" name="node_Conv_1938" type="Add" version="opset1">
			<data auto_broadcast="numpy" />
			<input>
				<port id="0" precision="FP32">
					<dim>-1</dim>
					<dim>8</dim>
					<dim>80</dim>
					<dim>80</dim>
				</port>
				<port id="1" precision="FP32">
					<dim>1</dim>
					<dim>8</dim>
					<dim>1</dim>
					<dim>1</dim>
				</port>
			</input>
			<output>
				<port id="2" precision="FP32" names="getitem_6">
					<dim>-1</dim>
					<dim>8</dim>
					<dim>80</dim>
					<dim>80</dim>
				</port>
			</output>
		</layer>
		<layer id="56" name="node_relu_2" type="ReLU" version="opset1">
			<input>
				<port id="0" precision="FP32">
					<dim>-1</dim>
					<dim>8</dim>
					<dim>80</dim>
					<dim>80</dim>
				</port>
			</input>
			<output>
				<port id="1" precision="FP32" names="relu_2">
					<dim>-1</dim>
					<dim>8</dim>
					<dim>80</dim>
					<dim>80</dim>
				</port>
			</output>
		</layer>
		<layer id="57" name="node_cat" type="Concat" version="opset1">
			<data axis="1" />
			<input>
				<port id="0" precision="FP32">
					<dim>-1</dim>
					<dim>8</dim>
					<dim>80</dim>
					<dim>80</dim>
				</port>
				<port id="1" precision="FP32">
					<dim>-1</dim>
					<dim>8</dim>
					<dim>80</dim>
					<dim>80</dim>
				</port>
			</input>
			<output>
				<port id="2" precision="FP32" names="cat">
					<dim>-1</dim>
					<dim>16</dim>
					<dim>80</dim>
					<dim>80</dim>
				</port>
			</output>
		</layer>
		<layer id="58" name="blocks.0.0.ghost2.primary_conv.0.weight_compressed" type="Const" version="opset1">
			<data element_type="f16" shape="8, 16, 1, 1" offset="1376" size="256" />
			<output>
				<port id="0" precision="FP16" names="blocks.0.0.ghost2.primary_conv.0.weight">
					<dim>8</dim>
					<dim>16</dim>
					<dim>1</dim>
					<dim>1</dim>
				</port>
			</output>
		</layer>
		<layer id="59" name="blocks.0.0.ghost2.primary_conv.0.weight" type="Convert" version="opset1">
			<data destination_type="f32" />
			<rt_info>
				<attribute name="decompression" version="0" />
			</rt_info>
			<input>
				<port id="0" precision="FP16">
					<dim>8</dim>
					<dim>16</dim>
					<dim>1</dim>
					<dim>1</dim>
				</port>
			</input>
			<output>
				<port id="1" precision="FP32">
					<dim>8</dim>
					<dim>16</dim>
					<dim>1</dim>
					<dim>1</dim>
				</port>
			</output>
		</layer>
		<layer id="60" name="node_Conv_1941/WithoutBiases" type="Convolution" version="opset1">
			<data strides="1, 1" dilations="1, 1" pads_begin="0, 0" pads_end="0, 0" auto_pad="explicit" />
			<input>
				<port id="0" precision="FP32">
					<dim>-1</dim>
					<dim>16</dim>
					<dim>80</dim>
					<dim>80</dim>
				</port>
				<port id="1" precision="FP32">
					<dim>8</dim>
					<dim>16</dim>
					<dim>1</dim>
					<dim>1</dim>
				</port>
			</input>
			<output>
				<port id="2" precision="FP32">
					<dim>-1</dim>
					<dim>8</dim>
					<dim>80</dim>
					<dim>80</dim>
				</port>
			</output>
		</layer>
		<layer id="61" name="blocks.0.0.ghost2.primary_conv.0.weight_bias_compressed" type="Const" version="opset1">
			<data element_type="f16" shape="8" offset="1632" size="16" />
			<output>
				<port id="0" precision="FP16" names="blocks.0.0.ghost2.primary_conv.0.weight_bias">
					<dim>8</dim>
				</port>
			</output>
		</layer>
		<layer id="62" name="blocks.0.0.ghost2.primary_conv.0.weight_bias" type="Convert" version="opset1">
			<data destination_type="f32" />
			<rt_info>
				<attribute name="decompression" version="0" />
			</rt_info>
			<input>
				<port id="0" precision="FP16">
					<dim>8</dim>
				</port>
			</input>
			<output>
				<port id="1" precision="FP32">
					<dim>8</dim>
				</port>
			</output>
		</layer>
		<layer id="63" name="Constant_289" type="Const" version="opset1">
			<data element_type="i64" shape="1" offset="896" size="8" />
			<rt_info>
				<attribute name="precise" version="0" />
			</rt_info>
			<output>
				<port id="0" precision="I64">
					<dim>1</dim>
				</port>
			</output>
		</layer>
		<layer id="64" name="ShapeOf_295" type="ShapeOf" version="opset3">
			<data output_type="i64" />
			<input>
				<port id="0" precision="FP32">
					<dim>8</dim>
				</port>
			</input>
			<output>
				<port id="1" precision="I64">
					<dim>1</dim>
				</port>
			</output>
		</layer>
		<layer id="65" name="ShapeOf_287" type="ShapeOf" version="opset3">
			<data output_type="i64" />
			<input>
				<port id="0" precision="FP32">
					<dim>-1</dim>
					<dim>8</dim>
					<dim>80</dim>
					<dim>80</dim>
				</port>
			</input>
			<output>
				<port id="1" precision="I64">
					<dim>4</dim>
				</port>
			</output>
		</layer>
		<layer id="66" name="ShapeOf_288" type="ShapeOf" version="opset3">
			<data output_type="i64" />
			<input>
				<port id="0" precision="I64">
					<dim>4</dim>
				</port>
			</input>
			<output>
				<port id="1" precision="I64">
					<dim>1</dim>
				</port>
			</output>
		</layer>
		<layer id="67" name="Constant_290" type="Const" version="opset1">
			<data element_type="i64" shape="1" offset="904" size="8" />
			<rt_info>
				<attribute name="precise" version="0" />
			</rt_info>
			<output>
				<port id="0" precision="I64">
					<dim>1</dim>
				</port>
			</output>
		</layer>
		<layer id="68" name="Subtract_291" type="Subtract" version="opset1">
			<data auto_broadcast="numpy" />
			<input>
				<port id="0" precision="I64">
					<dim>1</dim>
				</port>
				<port id="1" precision="I64">
					<dim>1</dim>
				</port>
			</input>
			<output>
				<port id="2" precision="I64">
					<dim>1</dim>
				</port>
			</output>
		</layer>
		<layer id="69" name="Broadcast_292" type="Broadcast" version="opset3">
			<data mode="numpy" />
			<input>
				<port id="0" precision="I64">
					<dim>1</dim>
				</port>
				<port id="1" precision="I64">
					<dim>1</dim>
				</port>
			</input>
			<output>
				<port id="2" precision="I64">
					<dim>2</dim>
				</port>
			</output>
		</layer>
		<layer id="70" name="Concat_296" type="Concat" version="opset1">
			<data axis="0" />
			<input>
				<port id="0" precision="I64">
					<dim>1</dim>
				</port>
				<port id="1" precision="I64">
					<dim>1</dim>
				</port>
				<port id="2" precision="I64">
					<dim>2</dim>
				</port>
			</input>
			<output>
				<port id="3" precision="I64">
					<dim>4</dim>
				</port>
			</output>
		</layer>
		<layer id="71" name="Reshape_297" type="Reshape" version="opset1">
			<data special_zero="false" />
			<input>
				<port id="0" precision="FP32">
					<dim>8</dim>
				</port>
				<port id="1" precision="I64">
					<dim>4</dim>
				</port>
			</input>
			<output>
				<port id="2" precision="FP32">
					<dim>1</dim>
					<dim>8</dim>
					<dim>1</dim>
					<dim>1</dim>
				</port>
			</output>
		</layer>
		<layer id="72" name="node_Conv_1941" type="Add" version="opset1">
			<data auto_broadcast="numpy" />
			<input>
				<port id="0" precision="FP32">
					<dim>-1</dim>
					<dim>8</dim>
					<dim>80</dim>
					<dim>80</dim>
				</port>
				<port id="1" precision="FP32">
					<dim>1</dim>
					<dim>8</dim>
					<dim>1</dim>
					<dim>1</dim>
				</port>
			</input>
			<output>
				<port id="2" precision="FP32" names="getitem_9">
					<dim>-1</dim>
					<dim>8</dim>
					<dim>80</dim>
					<dim>80</dim>
				</port>
			</output>
		</layer>
		<layer id="73" name="blocks.0.0.ghost2.cheap_operation.0.weight_compressed" type="Const" version="opset1">
			<data element_type="f16" shape="8, 1, 3, 3" offset="1648" size="144" />
			<output>
				<port id="0" precision="FP16" names="blocks.0.0.ghost2.cheap_operation.0.weight">
					<dim>8</dim>
					<dim>1</dim>
					<dim>3</dim>
					<dim>3</dim>
				</port>
			</output>
		</layer>
		<layer id="74" name="blocks.0.0.ghost2.cheap_operation.0.weight" type="Convert" version="opset1">
			<data destination_type="f32" />
			<rt_info>
				<attribute name="decompression" version="0" />
			</rt_info>
			<input>
				<port id="0" precision="FP16">
					<dim>8</dim>
					<dim>1</dim>
					<dim>3</dim>
					<dim>3</dim>
				</port>
			</input>
			<output>
				<port id="1" precision="FP32">
					<dim>8</dim>
					<dim>1</dim>
					<dim>3</dim>
					<dim>3</dim>
				</port>
			</output>
		</layer>
		<layer id="75" name="Constant_301" type="Const" version="opset1">
			<data element_type="i64" shape="1" offset="1328" size="8" />
			<rt_info>
				<attribute name="precise" version="0" />
			</rt_info>
			<output>
				<port id="0" precision="I64">
					<dim>1</dim>
				</port>
			</output>
		</layer>
		<layer id="76" name="ShapeOf_302" type="ShapeOf" version="opset3">
			<data output_type="i64" />
			<input>
				<port id="0" precision="FP32">
					<dim>8</dim>
					<dim>1</dim>
					<dim>3</dim>
					<dim>3</dim>
				</port>
			</input>
			<output>
				<port id="1" precision="I64">
					<dim>4</dim>
				</port>
			</output>
		</layer>
		<layer id="77" name="Constant_299" type="Const" version="opset1">
			<data element_type="i64" shape="" offset="1336" size="8" />
			<rt_info>
				<attribute name="precise" version="0" />
			</rt_info>
			<output>
				<port id="0" precision="I64" />
			</output>
		</layer>
		<layer id="78" name="Constant_300" type="Const" version="opset1">
			<data element_type="i64" shape="2" offset="1344" size="16" />
			<rt_info>
				<attribute name="precise" version="0" />
			</rt_info>
			<output>
				<port id="0" precision="I64">
					<dim>2</dim>
				</port>
			</output>
		</layer>
		<layer id="79" name="VariadicSplit_303" type="VariadicSplit" version="opset1">
			<input>
				<port id="0" precision="I64">
					<dim>4</dim>
				</port>
				<port id="1" precision="I64" />
				<port id="2" precision="I64">
					<dim>2</dim>
				</port>
			</input>
			<output>
				<port id="3" precision="I64">
					<dim>1</dim>
				</port>
				<port id="4" precision="I64">
					<dim>3</dim>
				</port>
			</output>
		</layer>
		<layer id="80" name="Divide_304" type="Divide" version="opset1">
			<data auto_broadcast="numpy" m_pythondiv="true" />
			<input>
				<port id="0" precision="I64">
					<dim>1</dim>
				</port>
				<port id="1" precision="I64">
					<dim>1</dim>
				</port>
			</input>
			<output>
				<port id="2" precision="I64">
					<dim>1</dim>
				</port>
			</output>
		</layer>
		<layer id="81" name="Concat_305" type="Concat" version="opset1">
			<data axis="0" />
			<input>
				<port id="0" precision="I64">
					<dim>1</dim>
				</port>
				<port id="1" precision="I64">
					<dim>1</dim>
				</port>
				<port id="2" precision="I64">
					<dim>3</dim>
				</port>
			</input>
			<output>
				<port id="3" precision="I64">
					<dim>5</dim>
				</port>
			</output>
		</layer>
		<layer id="82" name="Reshape_306" type="Reshape" version="opset1">
			<data special_zero="false" />
			<input>
				<port id="0" precision="FP32">
					<dim>8</dim>
					<dim>1</dim>
					<dim>3</dim>
					<dim>3</dim>
				</port>
				<port id="1" precision="I64">
					<dim>5</dim>
				</port>
			</input>
			<output>
				<port id="2" precision="FP32">
					<dim>8</dim>
					<dim>1</dim>
					<dim>1</dim>
					<dim>3</dim>
					<dim>3</dim>
				</port>
			</output>
		</layer>
		<layer id="83" name="node_Conv_1943/WithoutBiases" type="GroupConvolution" version="opset1">
			<data strides="1, 1" pads_begin="1, 1" pads_end="1, 1" dilations="1, 1" auto_pad="explicit" />
			<input>
				<port id="0" precision="FP32">
					<dim>-1</dim>
					<dim>8</dim>
					<dim>80</dim>
					<dim>80</dim>
				</port>
				<port id="1" precision="FP32">
					<dim>8</dim>
					<dim>1</dim>
					<dim>1</dim>
					<dim>3</dim>
					<dim>3</dim>
				</port>
			</input>
			<output>
				<port id="2" precision="FP32">
					<dim>-1</dim>
					<dim>8</dim>
					<dim>80</dim>
					<dim>80</dim>
				</port>
			</output>
		</layer>
		<layer id="84" name="blocks.0.0.ghost2.cheap_operation.0.weight_bias_compressed" type="Const" version="opset1">
			<data element_type="f16" shape="8" offset="1792" size="16" />
			<output>
				<port id="0" precision="FP16" names="blocks.0.0.ghost2.cheap_operation.0.weight_bias">
					<dim>8</dim>
				</port>
			</output>
		</layer>
		<layer id="85" name="blocks.0.0.ghost2.cheap_operation.0.weight_bias" type="Convert" version="opset1">
			<data destination_type="f32" />
			<rt_info>
				<attribute name="decompression" version="0" />
			</rt_info>
			<input>
				<port id="0" precision="FP16">
					<dim>8</dim>
				</port>
			</input>
			<output>
				<port id="1" precision="FP32">
					<dim>8</dim>
				</port>
			</output>
		</layer>
		<layer id="86" name="Constant_348" type="Const" version="opset1">
			<data element_type="i64" shape="1" offset="896" size="8" />
			<rt_info>
				<attribute name="precise" version="0" />
			</rt_info>
			<output>
				<port id="0" precision="I64">
					<dim>1</dim>
				</port>
			</output>
		</layer>
		<layer id="87" name="ShapeOf_354" type="ShapeOf" version="opset3">
			<data output_type="i64" />
			<input>
				<port id="0" precision="FP32">
					<dim>8</dim>
				</port>
			</input>
			<output>
				<port id="1" precision="I64">
					<dim>1</dim>
				</port>
			</output>
		</layer>
		<layer id="88" name="ShapeOf_346" type="ShapeOf" version="opset3">
			<data output_type="i64" />
			<input>
				<port id="0" precision="FP32">
					<dim>-1</dim>
					<dim>8</dim>
					<dim>80</dim>
					<dim>80</dim>
				</port>
			</input>
			<output>
				<port id="1" precision="I64">
					<dim>4</dim>
				</port>
			</output>
		</layer>
		<layer id="89" name="ShapeOf_347" type="ShapeOf" version="opset3">
			<data output_type="i64" />
			<input>
				<port id="0" precision="I64">
					<dim>4</dim>
				</port>
			</input>
			<output>
				<port id="1" precision="I64">
					<dim>1</dim>
				</port>
			</output>
		</layer>
		<layer id="90" name="Constant_349" type="Const" version="opset1">
			<data element_type="i64" shape="1" offset="904" size="8" />
			<rt_info>
				<attribute name="precise" version="0" />
			</rt_info>
			<output>
				<port id="0" precision="I64">
					<dim>1</dim>
				</port>
			</output>
		</layer>
		<layer id="91" name="Subtract_350" type="Subtract" version="opset1">
			<data auto_broadcast="numpy" />
			<input>
				<port id="0" precision="I64">
					<dim>1</dim>
				</port>
				<port id="1" precision="I64">
					<dim>1</dim>
				</port>
			</input>
			<output>
				<port id="2" precision="I64">
					<dim>1</dim>
				</port>
			</output>
		</layer>
		<layer id="92" name="Broadcast_351" type="Broadcast" version="opset3">
			<data mode="numpy" />
			<input>
				<port id="0" precision="I64">
					<dim>1</dim>
				</port>
				<port id="1" precision="I64">
					<dim>1</dim>
				</port>
			</input>
			<output>
				<port id="2" precision="I64">
					<dim>2</dim>
				</port>
			</output>
		</layer>
		<layer id="93" name="Concat_355" type="Concat" version="opset1">
			<data axis="0" />
			<input>
				<port id="0" precision="I64">
					<dim>1</dim>
				</port>
				<port id="1" precision="I64">
					<dim>1</dim>
				</port>
				<port id="2" precision="I64">
					<dim>2</dim>
				</port>
			</input>
			<output>
				<port id="3" precision="I64">
					<dim>4</dim>
				</port>
			</output>
		</layer>
		<layer id="94" name="Reshape_356" type="Reshape" version="opset1">
			<data special_zero="false" />
			<input>
				<port id="0" precision="FP32">
					<dim>8</dim>
				</port>
				<port id="1" precision="I64">
					<dim>4</dim>
				</port>
			</input>
			<output>
				<port id="2" precision="FP32">
					<dim>1</dim>
					<dim>8</dim>
					<dim>1</dim>
					<dim>1</dim>
				</port>
			</output>
		</layer>
		<layer id="95" name="node_Conv_1943" type="Add" version="opset1">
			<data auto_broadcast="numpy" />
			<input>
				<port id="0" precision="FP32">
					<dim>-1</dim>
					<dim>8</dim>
					<dim>80</dim>
					<dim>80</dim>
				</port>
				<port id="1" precision="FP32">
					<dim>1</dim>
					<dim>8</dim>
					<dim>1</dim>
					<dim>1</dim>
				</port>
			</input>
			<output>
				<port id="2" precision="FP32" names="getitem_12">
					<dim>-1</dim>
					<dim>8</dim>
					<dim>80</dim>
					<dim>80</dim>
				</port>
			</output>
		</layer>
		<layer id="96" name="node_cat_1" type="Concat" version="opset1">
			<data axis="1" />
			<input>
				<port id="0" precision="FP32">
					<dim>-1</dim>
					<dim>8</dim>
					<dim>80</dim>
					<dim>80</dim>
				</port>
				<port id="1" precision="FP32">
					<dim>-1</dim>
					<dim>8</dim>
					<dim>80</dim>
					<dim>80</dim>
				</port>
			</input>
			<output>
				<port id="2" precision="FP32" names="cat_1">
					<dim>-1</dim>
					<dim>16</dim>
					<dim>80</dim>
					<dim>80</dim>
				</port>
			</output>
		</layer>
		<layer id="97" name="node_add_5" type="Add" version="opset1">
			<data auto_broadcast="numpy" />
			<input>
				<port id="0" precision="FP32">
					<dim>-1</dim>
					<dim>16</dim>
					<dim>80</dim>
					<dim>80</dim>
				</port>
				<port id="1" precision="FP32">
					<dim>-1</dim>
					<dim>16</dim>
					<dim>80</dim>
					<dim>80</dim>
				</port>
			</input>
			<output>
				<port id="2" precision="FP32" names="add_5">
					<dim>-1</dim>
					<dim>16</dim>
					<dim>80</dim>
					<dim>80</dim>
				</port>
			</output>
		</layer>
		<layer id="98" name="blocks.1.0.ghost1.primary_conv.0.weight_compressed" type="Const" version="opset1">
			<data element_type="f16" shape="24, 16, 1, 1" offset="1808" size="768" />
			<output>
				<port id="0" precision="FP16" names="blocks.1.0.ghost1.primary_conv.0.weight">
					<dim>24</dim>
					<dim>16</dim>
					<dim>1</dim>
					<dim>1</dim>
				</port>
			</output>
		</layer>
		<layer id="99" name="blocks.1.0.ghost1.primary_conv.0.weight" type="Convert" version="opset1">
			<data destination_type="f32" />
			<rt_info>
				<attribute name="decompression" version="0" />
			</rt_info>
			<input>
				<port id="0" precision="FP16">
					<dim>24</dim>
					<dim>16</dim>
					<dim>1</dim>
					<dim>1</dim>
				</port>
			</input>
			<output>
				<port id="1" precision="FP32">
					<dim>24</dim>
					<dim>16</dim>
					<dim>1</dim>
					<dim>1</dim>
				</port>
			</output>
		</layer>
		<layer id="100" name="node_Conv_1948/WithoutBiases" type="Convolution" version="opset1">
			<data strides="1, 1" dilations="1, 1" pads_begin="0, 0" pads_end="0, 0" auto_pad="explicit" />
			<input>
				<port id="0" precision="FP32">
					<dim>-1</dim>
					<dim>16</dim>
					<dim>80</dim>
					<dim>80</dim>
				</port>
				<port id="1" precision="FP32">
					<dim>24</dim>
					<dim>16</dim>
					<dim>1</dim>
					<dim>1</dim>
				</port>
			</input>
			<output>
				<port id="2" precision="FP32">
					<dim>-1</dim>
					<dim>24</dim>
					<dim>80</dim>
					<dim>80</dim>
				</port>
			</output>
		</layer>
		<layer id="101" name="blocks.1.0.ghost1.primary_conv.0.weight_bias_compressed" type="Const" version="opset1">
			<data element_type="f16" shape="24" offset="2576" size="48" />
			<output>
				<port id="0" precision="FP16" names="blocks.1.0.ghost1.primary_conv.0.weight_bias">
					<dim>24</dim>
				</port>
			</output>
		</layer>
		<layer id="102" name="blocks.1.0.ghost1.primary_conv.0.weight_bias" type="Convert" version="opset1">
			<data destination_type="f32" />
			<rt_info>
				<attribute name="decompression" version="0" />
			</rt_info>
			<input>
				<port id="0" precision="FP16">
					<dim>24</dim>
				</port>
			</input>
			<output>
				<port id="1" precision="FP32">
					<dim>24</dim>
				</port>
			</output>
		</layer>
		<layer id="103" name="Constant_363" type="Const" version="opset1">
			<data element_type="i64" shape="1" offset="896" size="8" />
			<rt_info>
				<attribute name="precise" version="0" />
			</rt_info>
			<output>
				<port id="0" precision="I64">
					<dim>1</dim>
				</port>
			</output>
		</layer>
		<layer id="104" name="ShapeOf_369" type="ShapeOf" version="opset3">
			<data output_type="i64" />
			<input>
				<port id="0" precision="FP32">
					<dim>24</dim>
				</port>
			</input>
			<output>
				<port id="1" precision="I64">
					<dim>1</dim>
				</port>
			</output>
		</layer>
		<layer id="105" name="ShapeOf_361" type="ShapeOf" version="opset3">
			<data output_type="i64" />
			<input>
				<port id="0" precision="FP32">
					<dim>-1</dim>
					<dim>24</dim>
					<dim>80</dim>
					<dim>80</dim>
				</port>
			</input>
			<output>
				<port id="1" precision="I64">
					<dim>4</dim>
				</port>
			</output>
		</layer>
		<layer id="106" name="ShapeOf_362" type="ShapeOf" version="opset3">
			<data output_type="i64" />
			<input>
				<port id="0" precision="I64">
					<dim>4</dim>
				</port>
			</input>
			<output>
				<port id="1" precision="I64">
					<dim>1</dim>
				</port>
			</output>
		</layer>
		<layer id="107" name="Constant_364" type="Const" version="opset1">
			<data element_type="i64" shape="1" offset="904" size="8" />
			<rt_info>
				<attribute name="precise" version="0" />
			</rt_info>
			<output>
				<port id="0" precision="I64">
					<dim>1</dim>
				</port>
			</output>
		</layer>
		<layer id="108" name="Subtract_365" type="Subtract" version="opset1">
			<data auto_broadcast="numpy" />
			<input>
				<port id="0" precision="I64">
					<dim>1</dim>
				</port>
				<port id="1" precision="I64">
					<dim>1</dim>
				</port>
			</input>
			<output>
				<port id="2" precision="I64">
					<dim>1</dim>
				</port>
			</output>
		</layer>
		<layer id="109" name="Broadcast_366" type="Broadcast" version="opset3">
			<data mode="numpy" />
			<input>
				<port id="0" precision="I64">
					<dim>1</dim>
				</port>
				<port id="1" precision="I64">
					<dim>1</dim>
				</port>
			</input>
			<output>
				<port id="2" precision="I64">
					<dim>2</dim>
				</port>
			</output>
		</layer>
		<layer id="110" name="Concat_370" type="Concat" version="opset1">
			<data axis="0" />
			<input>
				<port id="0" precision="I64">
					<dim>1</dim>
				</port>
				<port id="1" precision="I64">
					<dim>1</dim>
				</port>
				<port id="2" precision="I64">
					<dim>2</dim>
				</port>
			</input>
			<output>
				<port id="3" precision="I64">
					<dim>4</dim>
				</port>
			</output>
		</layer>
		<layer id="111" name="Reshape_371" type="Reshape" version="opset1">
			<data special_zero="false" />
			<input>
				<port id="0" precision="FP32">
					<dim>24</dim>
				</port>
				<port id="1" precision="I64">
					<dim>4</dim>
				</port>
			</input>
			<output>
				<port id="2" precision="FP32">
					<dim>1</dim>
					<dim>24</dim>
					<dim>1</dim>
					<dim>1</dim>
				</port>
			</output>
		</layer>
		<layer id="112" name="node_Conv_1948" type="Add" version="opset1">
			<data auto_broadcast="numpy" />
			<input>
				<port id="0" precision="FP32">
					<dim>-1</dim>
					<dim>24</dim>
					<dim>80</dim>
					<dim>80</dim>
				</port>
				<port id="1" precision="FP32">
					<dim>1</dim>
					<dim>24</dim>
					<dim>1</dim>
					<dim>1</dim>
				</port>
			</input>
			<output>
				<port id="2" precision="FP32" names="getitem_15">
					<dim>-1</dim>
					<dim>24</dim>
					<dim>80</dim>
					<dim>80</dim>
				</port>
			</output>
		</layer>
		<layer id="113" name="node_relu_3" type="ReLU" version="opset1">
			<input>
				<port id="0" precision="FP32">
					<dim>-1</dim>
					<dim>24</dim>
					<dim>80</dim>
					<dim>80</dim>
				</port>
			</input>
			<output>
				<port id="1" precision="FP32" names="relu_3">
					<dim>-1</dim>
					<dim>24</dim>
					<dim>80</dim>
					<dim>80</dim>
				</port>
			</output>
		</layer>
		<layer id="114" name="blocks.1.0.ghost1.cheap_operation.0.weight_compressed" type="Const" version="opset1">
			<data element_type="f16" shape="24, 1, 3, 3" offset="2624" size="432" />
			<output>
				<port id="0" precision="FP16" names="blocks.1.0.ghost1.cheap_operation.0.weight">
					<dim>24</dim>
					<dim>1</dim>
					<dim>3</dim>
					<dim>3</dim>
				</port>
			</output>
		</layer>
		<layer id="115" name="blocks.1.0.ghost1.cheap_operation.0.weight" type="Convert" version="opset1">
			<data destination_type="f32" />
			<rt_info>
				<attribute name="decompression" version="0" />
			</rt_info>
			<input>
				<port id="0" precision="FP16">
					<dim>24</dim>
					<dim>1</dim>
					<dim>3</dim>
					<dim>3</dim>
				</port>
			</input>
			<output>
				<port id="1" precision="FP32">
					<dim>24</dim>
					<dim>1</dim>
					<dim>3</dim>
					<dim>3</dim>
				</port>
			</output>
		</layer>
		<layer id="116" name="Constant_376" type="Const" version="opset1">
			<data element_type="i64" shape="1" offset="3056" size="8" />
			<rt_info>
				<attribute name="precise" version="0" />
			</rt_info>
			<output>
				<port id="0" precision="I64">
					<dim>1</dim>
				</port>
			</output>
		</layer>
		<layer id="117" name="ShapeOf_377" type="ShapeOf" version="opset3">
			<data output_type="i64" />
			<input>
				<port id="0" precision="FP32">
					<dim>24</dim>
					<dim>1</dim>
					<dim>3</dim>
					<dim>3</dim>
				</port>
			</input>
			<output>
				<port id="1" precision="I64">
					<dim>4</dim>
				</port>
			</output>
		</layer>
		<layer id="118" name="Constant_374" type="Const" version="opset1">
			<data element_type="i64" shape="" offset="1336" size="8" />
			<rt_info>
				<attribute name="precise" version="0" />
			</rt_info>
			<output>
				<port id="0" precision="I64" />
			</output>
		</layer>
		<layer id="119" name="Constant_375" type="Const" version="opset1">
			<data element_type="i64" shape="2" offset="1344" size="16" />
			<rt_info>
				<attribute name="precise" version="0" />
			</rt_info>
			<output>
				<port id="0" precision="I64">
					<dim>2</dim>
				</port>
			</output>
		</layer>
		<layer id="120" name="VariadicSplit_378" type="VariadicSplit" version="opset1">
			<input>
				<port id="0" precision="I64">
					<dim>4</dim>
				</port>
				<port id="1" precision="I64" />
				<port id="2" precision="I64">
					<dim>2</dim>
				</port>
			</input>
			<output>
				<port id="3" precision="I64">
					<dim>1</dim>
				</port>
				<port id="4" precision="I64">
					<dim>3</dim>
				</port>
			</output>
		</layer>
		<layer id="121" name="Divide_379" type="Divide" version="opset1">
			<data auto_broadcast="numpy" m_pythondiv="true" />
			<input>
				<port id="0" precision="I64">
					<dim>1</dim>
				</port>
				<port id="1" precision="I64">
					<dim>1</dim>
				</port>
			</input>
			<output>
				<port id="2" precision="I64">
					<dim>1</dim>
				</port>
			</output>
		</layer>
		<layer id="122" name="Concat_380" type="Concat" version="opset1">
			<data axis="0" />
			<input>
				<port id="0" precision="I64">
					<dim>1</dim>
				</port>
				<port id="1" precision="I64">
					<dim>1</dim>
				</port>
				<port id="2" precision="I64">
					<dim>3</dim>
				</port>
			</input>
			<output>
				<port id="3" precision="I64">
					<dim>5</dim>
				</port>
			</output>
		</layer>
		<layer id="123" name="Reshape_381" type="Reshape" version="opset1">
			<data special_zero="false" />
			<input>
				<port id="0" precision="FP32">
					<dim>24</dim>
					<dim>1</dim>
					<dim>3</dim>
					<dim>3</dim>
				</port>
				<port id="1" precision="I64">
					<dim>5</dim>
				</port>
			</input>
			<output>
				<port id="2" precision="FP32">
					<dim>24</dim>
					<dim>1</dim>
					<dim>1</dim>
					<dim>3</dim>
					<dim>3</dim>
				</port>
			</output>
		</layer>
		<layer id="124" name="node_Conv_1950/WithoutBiases" type="GroupConvolution" version="opset1">
			<data strides="1, 1" pads_begin="1, 1" pads_end="1, 1" dilations="1, 1" auto_pad="explicit" />
			<input>
				<port id="0" precision="FP32">
					<dim>-1</dim>
					<dim>24</dim>
					<dim>80</dim>
					<dim>80</dim>
				</port>
				<port id="1" precision="FP32">
					<dim>24</dim>
					<dim>1</dim>
					<dim>1</dim>
					<dim>3</dim>
					<dim>3</dim>
				</port>
			</input>
			<output>
				<port id="2" precision="FP32">
					<dim>-1</dim>
					<dim>24</dim>
					<dim>80</dim>
					<dim>80</dim>
				</port>
			</output>
		</layer>
		<layer id="125" name="blocks.1.0.ghost1.cheap_operation.0.weight_bias_compressed" type="Const" version="opset1">
			<data element_type="f16" shape="24" offset="3064" size="48" />
			<output>
				<port id="0" precision="FP16" names="blocks.1.0.ghost1.cheap_operation.0.weight_bias">
					<dim>24</dim>
				</port>
			</output>
		</layer>
		<layer id="126" name="blocks.1.0.ghost1.cheap_operation.0.weight_bias" type="Convert" version="opset1">
			<data destination_type="f32" />
			<rt_info>
				<attribute name="decompression" version="0" />
			</rt_info>
			<input>
				<port id="0" precision="FP16">
					<dim>24</dim>
				</port>
			</input>
			<output>
				<port id="1" precision="FP32">
					<dim>24</dim>
				</port>
			</output>
		</layer>
		<layer id="127" name="Constant_423" type="Const" version="opset1">
			<data element_type="i64" shape="1" offset="896" size="8" />
			<rt_info>
				<attribute name="precise" version="0" />
			</rt_info>
			<output>
				<port id="0" precision="I64">
					<dim>1</dim>
				</port>
			</output>
		</layer>
		<layer id="128" name="ShapeOf_429" type="ShapeOf" version="opset3">
			<data output_type="i64" />
			<input>
				<port id="0" precision="FP32">
					<dim>24</dim>
				</port>
			</input>
			<output>
				<port id="1" precision="I64">
					<dim>1</dim>
				</port>
			</output>
		</layer>
		<layer id="129" name="ShapeOf_421" type="ShapeOf" version="opset3">
			<data output_type="i64" />
			<input>
				<port id="0" precision="FP32">
					<dim>-1</dim>
					<dim>24</dim>
					<dim>80</dim>
					<dim>80</dim>
				</port>
			</input>
			<output>
				<port id="1" precision="I64">
					<dim>4</dim>
				</port>
			</output>
		</layer>
		<layer id="130" name="ShapeOf_422" type="ShapeOf" version="opset3">
			<data output_type="i64" />
			<input>
				<port id="0" precision="I64">
					<dim>4</dim>
				</port>
			</input>
			<output>
				<port id="1" precision="I64">
					<dim>1</dim>
				</port>
			</output>
		</layer>
		<layer id="131" name="Constant_424" type="Const" version="opset1">
			<data element_type="i64" shape="1" offset="904" size="8" />
			<rt_info>
				<attribute name="precise" version="0" />
			</rt_info>
			<output>
				<port id="0" precision="I64">
					<dim>1</dim>
				</port>
			</output>
		</layer>
		<layer id="132" name="Subtract_425" type="Subtract" version="opset1">
			<data auto_broadcast="numpy" />
			<input>
				<port id="0" precision="I64">
					<dim>1</dim>
				</port>
				<port id="1" precision="I64">
					<dim>1</dim>
				</port>
			</input>
			<output>
				<port id="2" precision="I64">
					<dim>1</dim>
				</port>
			</output>
		</layer>
		<layer id="133" name="Broadcast_426" type="Broadcast" version="opset3">
			<data mode="numpy" />
			<input>
				<port id="0" precision="I64">
					<dim>1</dim>
				</port>
				<port id="1" precision="I64">
					<dim>1</dim>
				</port>
			</input>
			<output>
				<port id="2" precision="I64">
					<dim>2</dim>
				</port>
			</output>
		</layer>
		<layer id="134" name="Concat_430" type="Concat" version="opset1">
			<data axis="0" />
			<input>
				<port id="0" precision="I64">
					<dim>1</dim>
				</port>
				<port id="1" precision="I64">
					<dim>1</dim>
				</port>
				<port id="2" precision="I64">
					<dim>2</dim>
				</port>
			</input>
			<output>
				<port id="3" precision="I64">
					<dim>4</dim>
				</port>
			</output>
		</layer>
		<layer id="135" name="Reshape_431" type="Reshape" version="opset1">
			<data special_zero="false" />
			<input>
				<port id="0" precision="FP32">
					<dim>24</dim>
				</port>
				<port id="1" precision="I64">
					<dim>4</dim>
				</port>
			</input>
			<output>
				<port id="2" precision="FP32">
					<dim>1</dim>
					<dim>24</dim>
					<dim>1</dim>
					<dim>1</dim>
				</port>
			</output>
		</layer>
		<layer id="136" name="node_Conv_1950" type="Add" version="opset1">
			<data auto_broadcast="numpy" />
			<input>
				<port id="0" precision="FP32">
					<dim>-1</dim>
					<dim>24</dim>
					<dim>80</dim>
					<dim>80</dim>
				</port>
				<port id="1" precision="FP32">
					<dim>1</dim>
					<dim>24</dim>
					<dim>1</dim>
					<dim>1</dim>
				</port>
			</input>
			<output>
				<port id="2" precision="FP32" names="getitem_18">
					<dim>-1</dim>
					<dim>24</dim>
					<dim>80</dim>
					<dim>80</dim>
				</port>
			</output>
		</layer>
		<layer id="137" name="node_relu_4" type="ReLU" version="opset1">
			<input>
				<port id="0" precision="FP32">
					<dim>-1</dim>
					<dim>24</dim>
					<dim>80</dim>
					<dim>80</dim>
				</port>
			</input>
			<output>
				<port id="1" precision="FP32" names="relu_4">
					<dim>-1</dim>
					<dim>24</dim>
					<dim>80</dim>
					<dim>80</dim>
				</port>
			</output>
		</layer>
		<layer id="138" name="node_cat_2" type="Concat" version="opset1">
			<data axis="1" />
			<input>
				<port id="0" precision="FP32">
					<dim>-1</dim>
					<dim>24</dim>
					<dim>80</dim>
					<dim>80</dim>
				</port>
				<port id="1" precision="FP32">
					<dim>-1</dim>
					<dim>24</dim>
					<dim>80</dim>
					<dim>80</dim>
				</port>
			</input>
			<output>
				<port id="2" precision="FP32" names="cat_2">
					<dim>-1</dim>
					<dim>48</dim>
					<dim>80</dim>
					<dim>80</dim>
				</port>
			</output>
		</layer>
		<layer id="139" name="blocks.1.0.conv_dw.weight_compressed" type="Const" version="opset1">
			<data element_type="f16" shape="48, 1, 3, 3" offset="3112" size="864" />
			<output>
				<port id="0" precision="FP16" names="blocks.1.0.conv_dw.weight">
					<dim>48</dim>
					<dim>1</dim>
					<dim>3</dim>
					<dim>3</dim>
				</port>
			</output>
		</layer>
		<layer id="140" name="blocks.1.0.conv_dw.weight" type="Convert" version="opset1">
			<data destination_type="f32" />
			<rt_info>
				<attribute name="decompression" version="0" />
			</rt_info>
			<input>
				<port id="0" precision="FP16">
					<dim>48</dim>
					<dim>1</dim>
					<dim>3</dim>
					<dim>3</dim>
				</port>
			</input>
			<output>
				<port id="1" precision="FP32">
					<dim>48</dim>
					<dim>1</dim>
					<dim>3</dim>
					<dim>3</dim>
				</port>
			</output>
		</layer>
		<layer id="141" name="Constant_437" type="Const" version="opset1">
			<data element_type="i64" shape="1" offset="3976" size="8" />
			<rt_info>
				<attribute name="precise" version="0" />
			</rt_info>
			<output>
				<port id="0" precision="I64">
					<dim>1</dim>
				</port>
			</output>
		</layer>
		<layer id="142" name="ShapeOf_438" type="ShapeOf" version="opset3">
			<data output_type="i64" />
			<input>
				<port id="0" precision="FP32">
					<dim>48</dim>
					<dim>1</dim>
					<dim>3</dim>
					<dim>3</dim>
				</port>
			</input>
			<output>
				<port id="1" precision="I64">
					<dim>4</dim>
				</port>
			</output>
		</layer>
		<layer id="143" name="Constant_435" type="Const" version="opset1">
			<data element_type="i64" shape="" offset="1336" size="8" />
			<rt_info>
				<attribute name="precise" version="0" />
			</rt_info>
			<output>
				<port id="0" precision="I64" />
			</output>
		</layer>
		<layer id="144" name="Constant_436" type="Const" version="opset1">
			<data element_type="i64" shape="2" offset="1344" size="16" />
			<rt_info>
				<attribute name="precise" version="0" />
			</rt_info>
			<output>
				<port id="0" precision="I64">
					<dim>2</dim>
				</port>
			</output>
		</layer>
		<layer id="145" name="VariadicSplit_439" type="VariadicSplit" version="opset1">
			<input>
				<port id="0" precision="I64">
					<dim>4</dim>
				</port>
				<port id="1" precision="I64" />
				<port id="2" precision="I64">
					<dim>2</dim>
				</port>
			</input>
			<output>
				<port id="3" precision="I64">
					<dim>1</dim>
				</port>
				<port id="4" precision="I64">
					<dim>3</dim>
				</port>
			</output>
		</layer>
		<layer id="146" name="Divide_440" type="Divide" version="opset1">
			<data auto_broadcast="numpy" m_pythondiv="true" />
			<input>
				<port id="0" precision="I64">
					<dim>1</dim>
				</port>
				<port id="1" precision="I64">
					<dim>1</dim>
				</port>
			</input>
			<output>
				<port id="2" precision="I64">
					<dim>1</dim>
				</port>
			</output>
		</layer>
		<layer id="147" name="Concat_441" type="Concat" version="opset1">
			<data axis="0" />
			<input>
				<port id="0" precision="I64">
					<dim>1</dim>
				</port>
				<port id="1" precision="I64">
					<dim>1</dim>
				</port>
				<port id="2" precision="I64">
					<dim>3</dim>
				</port>
			</input>
			<output>
				<port id="3" precision="I64">
					<dim>5</dim>
				</port>
			</output>
		</layer>
		<layer id="148" name="Reshape_442" type="Reshape" version="opset1">
			<data special_zero="false" />
			<input>
				<port id="0" precision="FP32">
					<dim>48</dim>
					<dim>1</dim>
					<dim>3</dim>
					<dim>3</dim>
				</port>
				<port id="1" precision="I64">
					<dim>5</dim>
				</port>
			</input>
			<output>
				<port id="2" precision="FP32">
					<dim>48</dim>
					<dim>1</dim>
					<dim>1</dim>
					<dim>3</dim>
					<dim>3</dim>
				</port>
			</output>
		</layer>
		<layer id="149" name="node_Conv_1953/WithoutBiases" type="GroupConvolution" version="opset1">
			<data strides="2, 2" pads_begin="1, 1" pads_end="1, 1" dilations="1, 1" auto_pad="explicit" />
			<input>
				<port id="0" precision="FP32">
					<dim>-1</dim>
					<dim>48</dim>
					<dim>80</dim>
					<dim>80</dim>
				</port>
				<port id="1" precision="FP32">
					<dim>48</dim>
					<dim>1</dim>
					<dim>1</dim>
					<dim>3</dim>
					<dim>3</dim>
				</port>
			</input>
			<output>
				<port id="2" precision="FP32">
					<dim>-1</dim>
					<dim>48</dim>
					<dim>40</dim>
					<dim>40</dim>
				</port>
			</output>
		</layer>
		<layer id="150" name="blocks.1.0.conv_dw.weight_bias_compressed" type="Const" version="opset1">
			<data element_type="f16" shape="48" offset="3984" size="96" />
			<output>
				<port id="0" precision="FP16" names="blocks.1.0.conv_dw.weight_bias">
					<dim>48</dim>
				</port>
			</output>
		</layer>
		<layer id="151" name="blocks.1.0.conv_dw.weight_bias" type="Convert" version="opset1">
			<data destination_type="f32" />
			<rt_info>
				<attribute name="decompression" version="0" />
			</rt_info>
			<input>
				<port id="0" precision="FP16">
					<dim>48</dim>
				</port>
			</input>
			<output>
				<port id="1" precision="FP32">
					<dim>48</dim>
				</port>
			</output>
		</layer>
		<layer id="152" name="Constant_484" type="Const" version="opset1">
			<data element_type="i64" shape="1" offset="896" size="8" />
			<rt_info>
				<attribute name="precise" version="0" />
			</rt_info>
			<output>
				<port id="0" precision="I64">
					<dim>1</dim>
				</port>
			</output>
		</layer>
		<layer id="153" name="ShapeOf_490" type="ShapeOf" version="opset3">
			<data output_type="i64" />
			<input>
				<port id="0" precision="FP32">
					<dim>48</dim>
				</port>
			</input>
			<output>
				<port id="1" precision="I64">
					<dim>1</dim>
				</port>
			</output>
		</layer>
		<layer id="154" name="ShapeOf_482" type="ShapeOf" version="opset3">
			<data output_type="i64" />
			<input>
				<port id="0" precision="FP32">
					<dim>-1</dim>
					<dim>48</dim>
					<dim>40</dim>
					<dim>40</dim>
				</port>
			</input>
			<output>
				<port id="1" precision="I64">
					<dim>4</dim>
				</port>
			</output>
		</layer>
		<layer id="155" name="ShapeOf_483" type="ShapeOf" version="opset3">
			<data output_type="i64" />
			<input>
				<port id="0" precision="I64">
					<dim>4</dim>
				</port>
			</input>
			<output>
				<port id="1" precision="I64">
					<dim>1</dim>
				</port>
			</output>
		</layer>
		<layer id="156" name="Constant_485" type="Const" version="opset1">
			<data element_type="i64" shape="1" offset="904" size="8" />
			<rt_info>
				<attribute name="precise" version="0" />
			</rt_info>
			<output>
				<port id="0" precision="I64">
					<dim>1</dim>
				</port>
			</output>
		</layer>
		<layer id="157" name="Subtract_486" type="Subtract" version="opset1">
			<data auto_broadcast="numpy" />
			<input>
				<port id="0" precision="I64">
					<dim>1</dim>
				</port>
				<port id="1" precision="I64">
					<dim>1</dim>
				</port>
			</input>
			<output>
				<port id="2" precision="I64">
					<dim>1</dim>
				</port>
			</output>
		</layer>
		<layer id="158" name="Broadcast_487" type="Broadcast" version="opset3">
			<data mode="numpy" />
			<input>
				<port id="0" precision="I64">
					<dim>1</dim>
				</port>
				<port id="1" precision="I64">
					<dim>1</dim>
				</port>
			</input>
			<output>
				<port id="2" precision="I64">
					<dim>2</dim>
				</port>
			</output>
		</layer>
		<layer id="159" name="Concat_491" type="Concat" version="opset1">
			<data axis="0" />
			<input>
				<port id="0" precision="I64">
					<dim>1</dim>
				</port>
				<port id="1" precision="I64">
					<dim>1</dim>
				</port>
				<port id="2" precision="I64">
					<dim>2</dim>
				</port>
			</input>
			<output>
				<port id="3" precision="I64">
					<dim>4</dim>
				</port>
			</output>
		</layer>
		<layer id="160" name="Reshape_492" type="Reshape" version="opset1">
			<data special_zero="false" />
			<input>
				<port id="0" precision="FP32">
					<dim>48</dim>
				</port>
				<port id="1" precision="I64">
					<dim>4</dim>
				</port>
			</input>
			<output>
				<port id="2" precision="FP32">
					<dim>1</dim>
					<dim>48</dim>
					<dim>1</dim>
					<dim>1</dim>
				</port>
			</output>
		</layer>
		<layer id="161" name="node_Conv_1953" type="Add" version="opset1">
			<data auto_broadcast="numpy" />
			<input>
				<port id="0" precision="FP32">
					<dim>-1</dim>
					<dim>48</dim>
					<dim>40</dim>
					<dim>40</dim>
				</port>
				<port id="1" precision="FP32">
					<dim>1</dim>
					<dim>48</dim>
					<dim>1</dim>
					<dim>1</dim>
				</port>
			</input>
			<output>
				<port id="2" precision="FP32" names="getitem_21">
					<dim>-1</dim>
					<dim>48</dim>
					<dim>40</dim>
					<dim>40</dim>
				</port>
			</output>
		</layer>
		<layer id="162" name="blocks.1.0.ghost2.primary_conv.0.weight_compressed" type="Const" version="opset1">
			<data element_type="f16" shape="12, 48, 1, 1" offset="4080" size="1152" />
			<output>
				<port id="0" precision="FP16" names="blocks.1.0.ghost2.primary_conv.0.weight">
					<dim>12</dim>
					<dim>48</dim>
					<dim>1</dim>
					<dim>1</dim>
				</port>
			</output>
		</layer>
		<layer id="163" name="blocks.1.0.ghost2.primary_conv.0.weight" type="Convert" version="opset1">
			<data destination_type="f32" />
			<rt_info>
				<attribute name="decompression" version="0" />
			</rt_info>
			<input>
				<port id="0" precision="FP16">
					<dim>12</dim>
					<dim>48</dim>
					<dim>1</dim>
					<dim>1</dim>
				</port>
			</input>
			<output>
				<port id="1" precision="FP32">
					<dim>12</dim>
					<dim>48</dim>
					<dim>1</dim>
					<dim>1</dim>
				</port>
			</output>
		</layer>
		<layer id="164" name="node_Conv_1955/WithoutBiases" type="Convolution" version="opset1">
			<data strides="1, 1" dilations="1, 1" pads_begin="0, 0" pads_end="0, 0" auto_pad="explicit" />
			<input>
				<port id="0" precision="FP32">
					<dim>-1</dim>
					<dim>48</dim>
					<dim>40</dim>
					<dim>40</dim>
				</port>
				<port id="1" precision="FP32">
					<dim>12</dim>
					<dim>48</dim>
					<dim>1</dim>
					<dim>1</dim>
				</port>
			</input>
			<output>
				<port id="2" precision="FP32">
					<dim>-1</dim>
					<dim>12</dim>
					<dim>40</dim>
					<dim>40</dim>
				</port>
			</output>
		</layer>
		<layer id="165" name="blocks.1.0.ghost2.primary_conv.0.weight_bias_compressed" type="Const" version="opset1">
			<data element_type="f16" shape="12" offset="5232" size="24" />
			<output>
				<port id="0" precision="FP16" names="blocks.1.0.ghost2.primary_conv.0.weight_bias">
					<dim>12</dim>
				</port>
			</output>
		</layer>
		<layer id="166" name="blocks.1.0.ghost2.primary_conv.0.weight_bias" type="Convert" version="opset1">
			<data destination_type="f32" />
			<rt_info>
				<attribute name="decompression" version="0" />
			</rt_info>
			<input>
				<port id="0" precision="FP16">
					<dim>12</dim>
				</port>
			</input>
			<output>
				<port id="1" precision="FP32">
					<dim>12</dim>
				</port>
			</output>
		</layer>
		<layer id="167" name="Constant_497" type="Const" version="opset1">
			<data element_type="i64" shape="1" offset="896" size="8" />
			<rt_info>
				<attribute name="precise" version="0" />
			</rt_info>
			<output>
				<port id="0" precision="I64">
					<dim>1</dim>
				</port>
			</output>
		</layer>
		<layer id="168" name="ShapeOf_503" type="ShapeOf" version="opset3">
			<data output_type="i64" />
			<input>
				<port id="0" precision="FP32">
					<dim>12</dim>
				</port>
			</input>
			<output>
				<port id="1" precision="I64">
					<dim>1</dim>
				</port>
			</output>
		</layer>
		<layer id="169" name="ShapeOf_495" type="ShapeOf" version="opset3">
			<data output_type="i64" />
			<input>
				<port id="0" precision="FP32">
					<dim>-1</dim>
					<dim>12</dim>
					<dim>40</dim>
					<dim>40</dim>
				</port>
			</input>
			<output>
				<port id="1" precision="I64">
					<dim>4</dim>
				</port>
			</output>
		</layer>
		<layer id="170" name="ShapeOf_496" type="ShapeOf" version="opset3">
			<data output_type="i64" />
			<input>
				<port id="0" precision="I64">
					<dim>4</dim>
				</port>
			</input>
			<output>
				<port id="1" precision="I64">
					<dim>1</dim>
				</port>
			</output>
		</layer>
		<layer id="171" name="Constant_498" type="Const" version="opset1">
			<data element_type="i64" shape="1" offset="904" size="8" />
			<rt_info>
				<attribute name="precise" version="0" />
			</rt_info>
			<output>
				<port id="0" precision="I64">
					<dim>1</dim>
				</port>
			</output>
		</layer>
		<layer id="172" name="Subtract_499" type="Subtract" version="opset1">
			<data auto_broadcast="numpy" />
			<input>
				<port id="0" precision="I64">
					<dim>1</dim>
				</port>
				<port id="1" precision="I64">
					<dim>1</dim>
				</port>
			</input>
			<output>
				<port id="2" precision="I64">
					<dim>1</dim>
				</port>
			</output>
		</layer>
		<layer id="173" name="Broadcast_500" type="Broadcast" version="opset3">
			<data mode="numpy" />
			<input>
				<port id="0" precision="I64">
					<dim>1</dim>
				</port>
				<port id="1" precision="I64">
					<dim>1</dim>
				</port>
			</input>
			<output>
				<port id="2" precision="I64">
					<dim>2</dim>
				</port>
			</output>
		</layer>
		<layer id="174" name="Concat_504" type="Concat" version="opset1">
			<data axis="0" />
			<input>
				<port id="0" precision="I64">
					<dim>1</dim>
				</port>
				<port id="1" precision="I64">
					<dim>1</dim>
				</port>
				<port id="2" precision="I64">
					<dim>2</dim>
				</port>
			</input>
			<output>
				<port id="3" precision="I64">
					<dim>4</dim>
				</port>
			</output>
		</layer>
		<layer id="175" name="Reshape_505" type="Reshape" version="opset1">
			<data special_zero="false" />
			<input>
				<port id="0" precision="FP32">
					<dim>12</dim>
				</port>
				<port id="1" precision="I64">
					<dim>4</dim>
				</port>
			</input>
			<output>
				<port id="2" precision="FP32">
					<dim>1</dim>
					<dim>12</dim>
					<dim>1</dim>
					<dim>1</dim>
				</port>
			</output>
		</layer>
		<layer id="176" name="node_Conv_1955" type="Add" version="opset1">
			<data auto_broadcast="numpy" />
			<input>
				<port id="0" precision="FP32">
					<dim>-1</dim>
					<dim>12</dim>
					<dim>40</dim>
					<dim>40</dim>
				</port>
				<port id="1" precision="FP32">
					<dim>1</dim>
					<dim>12</dim>
					<dim>1</dim>
					<dim>1</dim>
				</port>
			</input>
			<output>
				<port id="2" precision="FP32" names="getitem_24">
					<dim>-1</dim>
					<dim>12</dim>
					<dim>40</dim>
					<dim>40</dim>
				</port>
			</output>
		</layer>
		<layer id="177" name="blocks.1.0.ghost2.cheap_operation.0.weight_compressed" type="Const" version="opset1">
			<data element_type="f16" shape="12, 1, 3, 3" offset="5256" size="216" />
			<output>
				<port id="0" precision="FP16" names="blocks.1.0.ghost2.cheap_operation.0.weight">
					<dim>12</dim>
					<dim>1</dim>
					<dim>3</dim>
					<dim>3</dim>
				</port>
			</output>
		</layer>
		<layer id="178" name="blocks.1.0.ghost2.cheap_operation.0.weight" type="Convert" version="opset1">
			<data destination_type="f32" />
			<rt_info>
				<attribute name="decompression" version="0" />
			</rt_info>
			<input>
				<port id="0" precision="FP16">
					<dim>12</dim>
					<dim>1</dim>
					<dim>3</dim>
					<dim>3</dim>
				</port>
			</input>
			<output>
				<port id="1" precision="FP32">
					<dim>12</dim>
					<dim>1</dim>
					<dim>3</dim>
					<dim>3</dim>
				</port>
			</output>
		</layer>
		<layer id="179" name="Constant_509" type="Const" version="opset1">
			<data element_type="i64" shape="1" offset="5472" size="8" />
			<rt_info>
				<attribute name="precise" version="0" />
			</rt_info>
			<output>
				<port id="0" precision="I64">
					<dim>1</dim>
				</port>
			</output>
		</layer>
		<layer id="180" name="ShapeOf_510" type="ShapeOf" version="opset3">
			<data output_type="i64" />
			<input>
				<port id="0" precision="FP32">
					<dim>12</dim>
					<dim>1</dim>
					<dim>3</dim>
					<dim>3</dim>
				</port>
			</input>
			<output>
				<port id="1" precision="I64">
					<dim>4</dim>
				</port>
			</output>
		</layer>
		<layer id="181" name="Constant_507" type="Const" version="opset1">
			<data element_type="i64" shape="" offset="1336" size="8" />
			<rt_info>
				<attribute name="precise" version="0" />
			</rt_info>
			<output>
				<port id="0" precision="I64" />
			</output>
		</layer>
		<layer id="182" name="Constant_508" type="Const" version="opset1">
			<data element_type="i64" shape="2" offset="1344" size="16" />
			<rt_info>
				<attribute name="precise" version="0" />
			</rt_info>
			<output>
				<port id="0" precision="I64">
					<dim>2</dim>
				</port>
			</output>
		</layer>
		<layer id="183" name="VariadicSplit_511" type="VariadicSplit" version="opset1">
			<input>
				<port id="0" precision="I64">
					<dim>4</dim>
				</port>
				<port id="1" precision="I64" />
				<port id="2" precision="I64">
					<dim>2</dim>
				</port>
			</input>
			<output>
				<port id="3" precision="I64">
					<dim>1</dim>
				</port>
				<port id="4" precision="I64">
					<dim>3</dim>
				</port>
			</output>
		</layer>
		<layer id="184" name="Divide_512" type="Divide" version="opset1">
			<data auto_broadcast="numpy" m_pythondiv="true" />
			<input>
				<port id="0" precision="I64">
					<dim>1</dim>
				</port>
				<port id="1" precision="I64">
					<dim>1</dim>
				</port>
			</input>
			<output>
				<port id="2" precision="I64">
					<dim>1</dim>
				</port>
			</output>
		</layer>
		<layer id="185" name="Concat_513" type="Concat" version="opset1">
			<data axis="0" />
			<input>
				<port id="0" precision="I64">
					<dim>1</dim>
				</port>
				<port id="1" precision="I64">
					<dim>1</dim>
				</port>
				<port id="2" precision="I64">
					<dim>3</dim>
				</port>
			</input>
			<output>
				<port id="3" precision="I64">
					<dim>5</dim>
				</port>
			</output>
		</layer>
		<layer id="186" name="Reshape_514" type="Reshape" version="opset1">
			<data special_zero="false" />
			<input>
				<port id="0" precision="FP32">
					<dim>12</dim>
					<dim>1</dim>
					<dim>3</dim>
					<dim>3</dim>
				</port>
				<port id="1" precision="I64">
					<dim>5</dim>
				</port>
			</input>
			<output>
				<port id="2" precision="FP32">
					<dim>12</dim>
					<dim>1</dim>
					<dim>1</dim>
					<dim>3</dim>
					<dim>3</dim>
				</port>
			</output>
		</layer>
		<layer id="187" name="node_Conv_1957/WithoutBiases" type="GroupConvolution" version="opset1">
			<data strides="1, 1" pads_begin="1, 1" pads_end="1, 1" dilations="1, 1" auto_pad="explicit" />
			<input>
				<port id="0" precision="FP32">
					<dim>-1</dim>
					<dim>12</dim>
					<dim>40</dim>
					<dim>40</dim>
				</port>
				<port id="1" precision="FP32">
					<dim>12</dim>
					<dim>1</dim>
					<dim>1</dim>
					<dim>3</dim>
					<dim>3</dim>
				</port>
			</input>
			<output>
				<port id="2" precision="FP32">
					<dim>-1</dim>
					<dim>12</dim>
					<dim>40</dim>
					<dim>40</dim>
				</port>
			</output>
		</layer>
		<layer id="188" name="blocks.1.0.ghost2.cheap_operation.0.weight_bias_compressed" type="Const" version="opset1">
			<data element_type="f16" shape="12" offset="5480" size="24" />
			<output>
				<port id="0" precision="FP16" names="blocks.1.0.ghost2.cheap_operation.0.weight_bias">
					<dim>12</dim>
				</port>
			</output>
		</layer>
		<layer id="189" name="blocks.1.0.ghost2.cheap_operation.0.weight_bias" type="Convert" version="opset1">
			<data destination_type="f32" />
			<rt_info>
				<attribute name="decompression" version="0" />
			</rt_info>
			<input>
				<port id="0" precision="FP16">
					<dim>12</dim>
				</port>
			</input>
			<output>
				<port id="1" precision="FP32">
					<dim>12</dim>
				</port>
			</output>
		</layer>
		<layer id="190" name="Constant_556" type="Const" version="opset1">
			<data element_type="i64" shape="1" offset="896" size="8" />
			<rt_info>
				<attribute name="precise" version="0" />
			</rt_info>
			<output>
				<port id="0" precision="I64">
					<dim>1</dim>
				</port>
			</output>
		</layer>
		<layer id="191" name="ShapeOf_562" type="ShapeOf" version="opset3">
			<data output_type="i64" />
			<input>
				<port id="0" precision="FP32">
					<dim>12</dim>
				</port>
			</input>
			<output>
				<port id="1" precision="I64">
					<dim>1</dim>
				</port>
			</output>
		</layer>
		<layer id="192" name="ShapeOf_554" type="ShapeOf" version="opset3">
			<data output_type="i64" />
			<input>
				<port id="0" precision="FP32">
					<dim>-1</dim>
					<dim>12</dim>
					<dim>40</dim>
					<dim>40</dim>
				</port>
			</input>
			<output>
				<port id="1" precision="I64">
					<dim>4</dim>
				</port>
			</output>
		</layer>
		<layer id="193" name="ShapeOf_555" type="ShapeOf" version="opset3">
			<data output_type="i64" />
			<input>
				<port id="0" precision="I64">
					<dim>4</dim>
				</port>
			</input>
			<output>
				<port id="1" precision="I64">
					<dim>1</dim>
				</port>
			</output>
		</layer>
		<layer id="194" name="Constant_557" type="Const" version="opset1">
			<data element_type="i64" shape="1" offset="904" size="8" />
			<rt_info>
				<attribute name="precise" version="0" />
			</rt_info>
			<output>
				<port id="0" precision="I64">
					<dim>1</dim>
				</port>
			</output>
		</layer>
		<layer id="195" name="Subtract_558" type="Subtract" version="opset1">
			<data auto_broadcast="numpy" />
			<input>
				<port id="0" precision="I64">
					<dim>1</dim>
				</port>
				<port id="1" precision="I64">
					<dim>1</dim>
				</port>
			</input>
			<output>
				<port id="2" precision="I64">
					<dim>1</dim>
				</port>
			</output>
		</layer>
		<layer id="196" name="Broadcast_559" type="Broadcast" version="opset3">
			<data mode="numpy" />
			<input>
				<port id="0" precision="I64">
					<dim>1</dim>
				</port>
				<port id="1" precision="I64">
					<dim>1</dim>
				</port>
			</input>
			<output>
				<port id="2" precision="I64">
					<dim>2</dim>
				</port>
			</output>
		</layer>
		<layer id="197" name="Concat_563" type="Concat" version="opset1">
			<data axis="0" />
			<input>
				<port id="0" precision="I64">
					<dim>1</dim>
				</port>
				<port id="1" precision="I64">
					<dim>1</dim>
				</port>
				<port id="2" precision="I64">
					<dim>2</dim>
				</port>
			</input>
			<output>
				<port id="3" precision="I64">
					<dim>4</dim>
				</port>
			</output>
		</layer>
		<layer id="198" name="Reshape_564" type="Reshape" version="opset1">
			<data special_zero="false" />
			<input>
				<port id="0" precision="FP32">
					<dim>12</dim>
				</port>
				<port id="1" precision="I64">
					<dim>4</dim>
				</port>
			</input>
			<output>
				<port id="2" precision="FP32">
					<dim>1</dim>
					<dim>12</dim>
					<dim>1</dim>
					<dim>1</dim>
				</port>
			</output>
		</layer>
		<layer id="199" name="node_Conv_1957" type="Add" version="opset1">
			<data auto_broadcast="numpy" />
			<input>
				<port id="0" precision="FP32">
					<dim>-1</dim>
					<dim>12</dim>
					<dim>40</dim>
					<dim>40</dim>
				</port>
				<port id="1" precision="FP32">
					<dim>1</dim>
					<dim>12</dim>
					<dim>1</dim>
					<dim>1</dim>
				</port>
			</input>
			<output>
				<port id="2" precision="FP32" names="getitem_27">
					<dim>-1</dim>
					<dim>12</dim>
					<dim>40</dim>
					<dim>40</dim>
				</port>
			</output>
		</layer>
		<layer id="200" name="node_cat_3" type="Concat" version="opset1">
			<data axis="1" />
			<input>
				<port id="0" precision="FP32">
					<dim>-1</dim>
					<dim>12</dim>
					<dim>40</dim>
					<dim>40</dim>
				</port>
				<port id="1" precision="FP32">
					<dim>-1</dim>
					<dim>12</dim>
					<dim>40</dim>
					<dim>40</dim>
				</port>
			</input>
			<output>
				<port id="2" precision="FP32" names="cat_3">
					<dim>-1</dim>
					<dim>24</dim>
					<dim>40</dim>
					<dim>40</dim>
				</port>
			</output>
		</layer>
		<layer id="201" name="blocks.1.0.shortcut.0.weight_compressed" type="Const" version="opset1">
			<data element_type="f16" shape="16, 1, 3, 3" offset="5504" size="288" />
			<output>
				<port id="0" precision="FP16" names="blocks.1.0.shortcut.0.weight">
					<dim>16</dim>
					<dim>1</dim>
					<dim>3</dim>
					<dim>3</dim>
				</port>
			</output>
		</layer>
		<layer id="202" name="blocks.1.0.shortcut.0.weight" type="Convert" version="opset1">
			<data destination_type="f32" />
			<rt_info>
				<attribute name="decompression" version="0" />
			</rt_info>
			<input>
				<port id="0" precision="FP16">
					<dim>16</dim>
					<dim>1</dim>
					<dim>3</dim>
					<dim>3</dim>
				</port>
			</input>
			<output>
				<port id="1" precision="FP32">
					<dim>16</dim>
					<dim>1</dim>
					<dim>3</dim>
					<dim>3</dim>
				</port>
			</output>
		</layer>
		<layer id="203" name="Constant_569" type="Const" version="opset1">
			<data element_type="i64" shape="1" offset="5792" size="8" />
			<rt_info>
				<attribute name="precise" version="0" />
			</rt_info>
			<output>
				<port id="0" precision="I64">
					<dim>1</dim>
				</port>
			</output>
		</layer>
		<layer id="204" name="ShapeOf_570" type="ShapeOf" version="opset3">
			<data output_type="i64" />
			<input>
				<port id="0" precision="FP32">
					<dim>16</dim>
					<dim>1</dim>
					<dim>3</dim>
					<dim>3</dim>
				</port>
			</input>
			<output>
				<port id="1" precision="I64">
					<dim>4</dim>
				</port>
			</output>
		</layer>
		<layer id="205" name="Constant_567" type="Const" version="opset1">
			<data element_type="i64" shape="" offset="1336" size="8" />
			<rt_info>
				<attribute name="precise" version="0" />
			</rt_info>
			<output>
				<port id="0" precision="I64" />
			</output>
		</layer>
		<layer id="206" name="Constant_568" type="Const" version="opset1">
			<data element_type="i64" shape="2" offset="1344" size="16" />
			<rt_info>
				<attribute name="precise" version="0" />
			</rt_info>
			<output>
				<port id="0" precision="I64">
					<dim>2</dim>
				</port>
			</output>
		</layer>
		<layer id="207" name="VariadicSplit_571" type="VariadicSplit" version="opset1">
			<input>
				<port id="0" precision="I64">
					<dim>4</dim>
				</port>
				<port id="1" precision="I64" />
				<port id="2" precision="I64">
					<dim>2</dim>
				</port>
			</input>
			<output>
				<port id="3" precision="I64">
					<dim>1</dim>
				</port>
				<port id="4" precision="I64">
					<dim>3</dim>
				</port>
			</output>
		</layer>
		<layer id="208" name="Divide_572" type="Divide" version="opset1">
			<data auto_broadcast="numpy" m_pythondiv="true" />
			<input>
				<port id="0" precision="I64">
					<dim>1</dim>
				</port>
				<port id="1" precision="I64">
					<dim>1</dim>
				</port>
			</input>
			<output>
				<port id="2" precision="I64">
					<dim>1</dim>
				</port>
			</output>
		</layer>
		<layer id="209" name="Concat_573" type="Concat" version="opset1">
			<data axis="0" />
			<input>
				<port id="0" precision="I64">
					<dim>1</dim>
				</port>
				<port id="1" precision="I64">
					<dim>1</dim>
				</port>
				<port id="2" precision="I64">
					<dim>3</dim>
				</port>
			</input>
			<output>
				<port id="3" precision="I64">
					<dim>5</dim>
				</port>
			</output>
		</layer>
		<layer id="210" name="Reshape_574" type="Reshape" version="opset1">
			<data special_zero="false" />
			<input>
				<port id="0" precision="FP32">
					<dim>16</dim>
					<dim>1</dim>
					<dim>3</dim>
					<dim>3</dim>
				</port>
				<port id="1" precision="I64">
					<dim>5</dim>
				</port>
			</input>
			<output>
				<port id="2" precision="FP32">
					<dim>16</dim>
					<dim>1</dim>
					<dim>1</dim>
					<dim>3</dim>
					<dim>3</dim>
				</port>
			</output>
		</layer>
		<layer id="211" name="node_Conv_1960/WithoutBiases" type="GroupConvolution" version="opset1">
			<data strides="2, 2" pads_begin="1, 1" pads_end="1, 1" dilations="1, 1" auto_pad="explicit" />
			<input>
				<port id="0" precision="FP32">
					<dim>-1</dim>
					<dim>16</dim>
					<dim>80</dim>
					<dim>80</dim>
				</port>
				<port id="1" precision="FP32">
					<dim>16</dim>
					<dim>1</dim>
					<dim>1</dim>
					<dim>3</dim>
					<dim>3</dim>
				</port>
			</input>
			<output>
				<port id="2" precision="FP32">
					<dim>-1</dim>
					<dim>16</dim>
					<dim>40</dim>
					<dim>40</dim>
				</port>
			</output>
		</layer>
		<layer id="212" name="blocks.1.0.shortcut.0.weight_bias_compressed" type="Const" version="opset1">
			<data element_type="f16" shape="16" offset="5800" size="32" />
			<output>
				<port id="0" precision="FP16" names="blocks.1.0.shortcut.0.weight_bias">
					<dim>16</dim>
				</port>
			</output>
		</layer>
		<layer id="213" name="blocks.1.0.shortcut.0.weight_bias" type="Convert" version="opset1">
			<data destination_type="f32" />
			<rt_info>
				<attribute name="decompression" version="0" />
			</rt_info>
			<input>
				<port id="0" precision="FP16">
					<dim>16</dim>
				</port>
			</input>
			<output>
				<port id="1" precision="FP32">
					<dim>16</dim>
				</port>
			</output>
		</layer>
		<layer id="214" name="Constant_616" type="Const" version="opset1">
			<data element_type="i64" shape="1" offset="896" size="8" />
			<rt_info>
				<attribute name="precise" version="0" />
			</rt_info>
			<output>
				<port id="0" precision="I64">
					<dim>1</dim>
				</port>
			</output>
		</layer>
		<layer id="215" name="ShapeOf_622" type="ShapeOf" version="opset3">
			<data output_type="i64" />
			<input>
				<port id="0" precision="FP32">
					<dim>16</dim>
				</port>
			</input>
			<output>
				<port id="1" precision="I64">
					<dim>1</dim>
				</port>
			</output>
		</layer>
		<layer id="216" name="ShapeOf_614" type="ShapeOf" version="opset3">
			<data output_type="i64" />
			<input>
				<port id="0" precision="FP32">
					<dim>-1</dim>
					<dim>16</dim>
					<dim>40</dim>
					<dim>40</dim>
				</port>
			</input>
			<output>
				<port id="1" precision="I64">
					<dim>4</dim>
				</port>
			</output>
		</layer>
		<layer id="217" name="ShapeOf_615" type="ShapeOf" version="opset3">
			<data output_type="i64" />
			<input>
				<port id="0" precision="I64">
					<dim>4</dim>
				</port>
			</input>
			<output>
				<port id="1" precision="I64">
					<dim>1</dim>
				</port>
			</output>
		</layer>
		<layer id="218" name="Constant_617" type="Const" version="opset1">
			<data element_type="i64" shape="1" offset="904" size="8" />
			<rt_info>
				<attribute name="precise" version="0" />
			</rt_info>
			<output>
				<port id="0" precision="I64">
					<dim>1</dim>
				</port>
			</output>
		</layer>
		<layer id="219" name="Subtract_618" type="Subtract" version="opset1">
			<data auto_broadcast="numpy" />
			<input>
				<port id="0" precision="I64">
					<dim>1</dim>
				</port>
				<port id="1" precision="I64">
					<dim>1</dim>
				</port>
			</input>
			<output>
				<port id="2" precision="I64">
					<dim>1</dim>
				</port>
			</output>
		</layer>
		<layer id="220" name="Broadcast_619" type="Broadcast" version="opset3">
			<data mode="numpy" />
			<input>
				<port id="0" precision="I64">
					<dim>1</dim>
				</port>
				<port id="1" precision="I64">
					<dim>1</dim>
				</port>
			</input>
			<output>
				<port id="2" precision="I64">
					<dim>2</dim>
				</port>
			</output>
		</layer>
		<layer id="221" name="Concat_623" type="Concat" version="opset1">
			<data axis="0" />
			<input>
				<port id="0" precision="I64">
					<dim>1</dim>
				</port>
				<port id="1" precision="I64">
					<dim>1</dim>
				</port>
				<port id="2" precision="I64">
					<dim>2</dim>
				</port>
			</input>
			<output>
				<port id="3" precision="I64">
					<dim>4</dim>
				</port>
			</output>
		</layer>
		<layer id="222" name="Reshape_624" type="Reshape" version="opset1">
			<data special_zero="false" />
			<input>
				<port id="0" precision="FP32">
					<dim>16</dim>
				</port>
				<port id="1" precision="I64">
					<dim>4</dim>
				</port>
			</input>
			<output>
				<port id="2" precision="FP32">
					<dim>1</dim>
					<dim>16</dim>
					<dim>1</dim>
					<dim>1</dim>
				</port>
			</output>
		</layer>
		<layer id="223" name="node_Conv_1960" type="Add" version="opset1">
			<data auto_broadcast="numpy" />
			<input>
				<port id="0" precision="FP32">
					<dim>-1</dim>
					<dim>16</dim>
					<dim>40</dim>
					<dim>40</dim>
				</port>
				<port id="1" precision="FP32">
					<dim>1</dim>
					<dim>16</dim>
					<dim>1</dim>
					<dim>1</dim>
				</port>
			</input>
			<output>
				<port id="2" precision="FP32" names="getitem_30">
					<dim>-1</dim>
					<dim>16</dim>
					<dim>40</dim>
					<dim>40</dim>
				</port>
			</output>
		</layer>
		<layer id="224" name="blocks.1.0.shortcut.2.weight_compressed" type="Const" version="opset1">
			<data element_type="f16" shape="24, 16, 1, 1" offset="5832" size="768" />
			<output>
				<port id="0" precision="FP16" names="blocks.1.0.shortcut.2.weight">
					<dim>24</dim>
					<dim>16</dim>
					<dim>1</dim>
					<dim>1</dim>
				</port>
			</output>
		</layer>
		<layer id="225" name="blocks.1.0.shortcut.2.weight" type="Convert" version="opset1">
			<data destination_type="f32" />
			<rt_info>
				<attribute name="decompression" version="0" />
			</rt_info>
			<input>
				<port id="0" precision="FP16">
					<dim>24</dim>
					<dim>16</dim>
					<dim>1</dim>
					<dim>1</dim>
				</port>
			</input>
			<output>
				<port id="1" precision="FP32">
					<dim>24</dim>
					<dim>16</dim>
					<dim>1</dim>
					<dim>1</dim>
				</port>
			</output>
		</layer>
		<layer id="226" name="node_Conv_1962/WithoutBiases" type="Convolution" version="opset1">
			<data strides="1, 1" dilations="1, 1" pads_begin="0, 0" pads_end="0, 0" auto_pad="explicit" />
			<input>
				<port id="0" precision="FP32">
					<dim>-1</dim>
					<dim>16</dim>
					<dim>40</dim>
					<dim>40</dim>
				</port>
				<port id="1" precision="FP32">
					<dim>24</dim>
					<dim>16</dim>
					<dim>1</dim>
					<dim>1</dim>
				</port>
			</input>
			<output>
				<port id="2" precision="FP32">
					<dim>-1</dim>
					<dim>24</dim>
					<dim>40</dim>
					<dim>40</dim>
				</port>
			</output>
		</layer>
		<layer id="227" name="blocks.1.0.shortcut.2.weight_bias_compressed" type="Const" version="opset1">
			<data element_type="f16" shape="24" offset="6600" size="48" />
			<output>
				<port id="0" precision="FP16" names="blocks.1.0.shortcut.2.weight_bias">
					<dim>24</dim>
				</port>
			</output>
		</layer>
		<layer id="228" name="blocks.1.0.shortcut.2.weight_bias" type="Convert" version="opset1">
			<data destination_type="f32" />
			<rt_info>
				<attribute name="decompression" version="0" />
			</rt_info>
			<input>
				<port id="0" precision="FP16">
					<dim>24</dim>
				</port>
			</input>
			<output>
				<port id="1" precision="FP32">
					<dim>24</dim>
				</port>
			</output>
		</layer>
		<layer id="229" name="Constant_629" type="Const" version="opset1">
			<data element_type="i64" shape="1" offset="896" size="8" />
			<rt_info>
				<attribute name="precise" version="0" />
			</rt_info>
			<output>
				<port id="0" precision="I64">
					<dim>1</dim>
				</port>
			</output>
		</layer>
		<layer id="230" name="ShapeOf_635" type="ShapeOf" version="opset3">
			<data output_type="i64" />
			<input>
				<port id="0" precision="FP32">
					<dim>24</dim>
				</port>
			</input>
			<output>
				<port id="1" precision="I64">
					<dim>1</dim>
				</port>
			</output>
		</layer>
		<layer id="231" name="ShapeOf_627" type="ShapeOf" version="opset3">
			<data output_type="i64" />
			<input>
				<port id="0" precision="FP32">
					<dim>-1</dim>
					<dim>24</dim>
					<dim>40</dim>
					<dim>40</dim>
				</port>
			</input>
			<output>
				<port id="1" precision="I64">
					<dim>4</dim>
				</port>
			</output>
		</layer>
		<layer id="232" name="ShapeOf_628" type="ShapeOf" version="opset3">
			<data output_type="i64" />
			<input>
				<port id="0" precision="I64">
					<dim>4</dim>
				</port>
			</input>
			<output>
				<port id="1" precision="I64">
					<dim>1</dim>
				</port>
			</output>
		</layer>
		<layer id="233" name="Constant_630" type="Const" version="opset1">
			<data element_type="i64" shape="1" offset="904" size="8" />
			<rt_info>
				<attribute name="precise" version="0" />
			</rt_info>
			<output>
				<port id="0" precision="I64">
					<dim>1</dim>
				</port>
			</output>
		</layer>
		<layer id="234" name="Subtract_631" type="Subtract" version="opset1">
			<data auto_broadcast="numpy" />
			<input>
				<port id="0" precision="I64">
					<dim>1</dim>
				</port>
				<port id="1" precision="I64">
					<dim>1</dim>
				</port>
			</input>
			<output>
				<port id="2" precision="I64">
					<dim>1</dim>
				</port>
			</output>
		</layer>
		<layer id="235" name="Broadcast_632" type="Broadcast" version="opset3">
			<data mode="numpy" />
			<input>
				<port id="0" precision="I64">
					<dim>1</dim>
				</port>
				<port id="1" precision="I64">
					<dim>1</dim>
				</port>
			</input>
			<output>
				<port id="2" precision="I64">
					<dim>2</dim>
				</port>
			</output>
		</layer>
		<layer id="236" name="Concat_636" type="Concat" version="opset1">
			<data axis="0" />
			<input>
				<port id="0" precision="I64">
					<dim>1</dim>
				</port>
				<port id="1" precision="I64">
					<dim>1</dim>
				</port>
				<port id="2" precision="I64">
					<dim>2</dim>
				</port>
			</input>
			<output>
				<port id="3" precision="I64">
					<dim>4</dim>
				</port>
			</output>
		</layer>
		<layer id="237" name="Reshape_637" type="Reshape" version="opset1">
			<data special_zero="false" />
			<input>
				<port id="0" precision="FP32">
					<dim>24</dim>
				</port>
				<port id="1" precision="I64">
					<dim>4</dim>
				</port>
			</input>
			<output>
				<port id="2" precision="FP32">
					<dim>1</dim>
					<dim>24</dim>
					<dim>1</dim>
					<dim>1</dim>
				</port>
			</output>
		</layer>
		<layer id="238" name="node_Conv_1962" type="Add" version="opset1">
			<data auto_broadcast="numpy" />
			<input>
				<port id="0" precision="FP32">
					<dim>-1</dim>
					<dim>24</dim>
					<dim>40</dim>
					<dim>40</dim>
				</port>
				<port id="1" precision="FP32">
					<dim>1</dim>
					<dim>24</dim>
					<dim>1</dim>
					<dim>1</dim>
				</port>
			</input>
			<output>
				<port id="2" precision="FP32" names="getitem_33">
					<dim>-1</dim>
					<dim>24</dim>
					<dim>40</dim>
					<dim>40</dim>
				</port>
			</output>
		</layer>
		<layer id="239" name="node_add_6" type="Add" version="opset1">
			<data auto_broadcast="numpy" />
			<input>
				<port id="0" precision="FP32">
					<dim>-1</dim>
					<dim>24</dim>
					<dim>40</dim>
					<dim>40</dim>
				</port>
				<port id="1" precision="FP32">
					<dim>-1</dim>
					<dim>24</dim>
					<dim>40</dim>
					<dim>40</dim>
				</port>
			</input>
			<output>
				<port id="2" precision="FP32" names="add_6">
					<dim>-1</dim>
					<dim>24</dim>
					<dim>40</dim>
					<dim>40</dim>
				</port>
			</output>
		</layer>
		<layer id="240" name="blocks.2.0.ghost1.primary_conv.0.weight_compressed" type="Const" version="opset1">
			<data element_type="f16" shape="36, 24, 1, 1" offset="6648" size="1728" />
			<output>
				<port id="0" precision="FP16" names="blocks.2.0.ghost1.primary_conv.0.weight">
					<dim>36</dim>
					<dim>24</dim>
					<dim>1</dim>
					<dim>1</dim>
				</port>
			</output>
		</layer>
		<layer id="241" name="blocks.2.0.ghost1.primary_conv.0.weight" type="Convert" version="opset1">
			<data destination_type="f32" />
			<rt_info>
				<attribute name="decompression" version="0" />
			</rt_info>
			<input>
				<port id="0" precision="FP16">
					<dim>36</dim>
					<dim>24</dim>
					<dim>1</dim>
					<dim>1</dim>
				</port>
			</input>
			<output>
				<port id="1" precision="FP32">
					<dim>36</dim>
					<dim>24</dim>
					<dim>1</dim>
					<dim>1</dim>
				</port>
			</output>
		</layer>
		<layer id="242" name="node_Conv_1966/WithoutBiases" type="Convolution" version="opset1">
			<data strides="1, 1" dilations="1, 1" pads_begin="0, 0" pads_end="0, 0" auto_pad="explicit" />
			<input>
				<port id="0" precision="FP32">
					<dim>-1</dim>
					<dim>24</dim>
					<dim>40</dim>
					<dim>40</dim>
				</port>
				<port id="1" precision="FP32">
					<dim>36</dim>
					<dim>24</dim>
					<dim>1</dim>
					<dim>1</dim>
				</port>
			</input>
			<output>
				<port id="2" precision="FP32">
					<dim>-1</dim>
					<dim>36</dim>
					<dim>40</dim>
					<dim>40</dim>
				</port>
			</output>
		</layer>
		<layer id="243" name="blocks.2.0.ghost1.primary_conv.0.weight_bias_compressed" type="Const" version="opset1">
			<data element_type="f16" shape="36" offset="8376" size="72" />
			<output>
				<port id="0" precision="FP16" names="blocks.2.0.ghost1.primary_conv.0.weight_bias">
					<dim>36</dim>
				</port>
			</output>
		</layer>
		<layer id="244" name="blocks.2.0.ghost1.primary_conv.0.weight_bias" type="Convert" version="opset1">
			<data destination_type="f32" />
			<rt_info>
				<attribute name="decompression" version="0" />
			</rt_info>
			<input>
				<port id="0" precision="FP16">
					<dim>36</dim>
				</port>
			</input>
			<output>
				<port id="1" precision="FP32">
					<dim>36</dim>
				</port>
			</output>
		</layer>
		<layer id="245" name="Constant_643" type="Const" version="opset1">
			<data element_type="i64" shape="1" offset="896" size="8" />
			<rt_info>
				<attribute name="precise" version="0" />
			</rt_info>
			<output>
				<port id="0" precision="I64">
					<dim>1</dim>
				</port>
			</output>
		</layer>
		<layer id="246" name="ShapeOf_649" type="ShapeOf" version="opset3">
			<data output_type="i64" />
			<input>
				<port id="0" precision="FP32">
					<dim>36</dim>
				</port>
			</input>
			<output>
				<port id="1" precision="I64">
					<dim>1</dim>
				</port>
			</output>
		</layer>
		<layer id="247" name="ShapeOf_641" type="ShapeOf" version="opset3">
			<data output_type="i64" />
			<input>
				<port id="0" precision="FP32">
					<dim>-1</dim>
					<dim>36</dim>
					<dim>40</dim>
					<dim>40</dim>
				</port>
			</input>
			<output>
				<port id="1" precision="I64">
					<dim>4</dim>
				</port>
			</output>
		</layer>
		<layer id="248" name="ShapeOf_642" type="ShapeOf" version="opset3">
			<data output_type="i64" />
			<input>
				<port id="0" precision="I64">
					<dim>4</dim>
				</port>
			</input>
			<output>
				<port id="1" precision="I64">
					<dim>1</dim>
				</port>
			</output>
		</layer>
		<layer id="249" name="Constant_644" type="Const" version="opset1">
			<data element_type="i64" shape="1" offset="904" size="8" />
			<rt_info>
				<attribute name="precise" version="0" />
			</rt_info>
			<output>
				<port id="0" precision="I64">
					<dim>1</dim>
				</port>
			</output>
		</layer>
		<layer id="250" name="Subtract_645" type="Subtract" version="opset1">
			<data auto_broadcast="numpy" />
			<input>
				<port id="0" precision="I64">
					<dim>1</dim>
				</port>
				<port id="1" precision="I64">
					<dim>1</dim>
				</port>
			</input>
			<output>
				<port id="2" precision="I64">
					<dim>1</dim>
				</port>
			</output>
		</layer>
		<layer id="251" name="Broadcast_646" type="Broadcast" version="opset3">
			<data mode="numpy" />
			<input>
				<port id="0" precision="I64">
					<dim>1</dim>
				</port>
				<port id="1" precision="I64">
					<dim>1</dim>
				</port>
			</input>
			<output>
				<port id="2" precision="I64">
					<dim>2</dim>
				</port>
			</output>
		</layer>
		<layer id="252" name="Concat_650" type="Concat" version="opset1">
			<data axis="0" />
			<input>
				<port id="0" precision="I64">
					<dim>1</dim>
				</port>
				<port id="1" precision="I64">
					<dim>1</dim>
				</port>
				<port id="2" precision="I64">
					<dim>2</dim>
				</port>
			</input>
			<output>
				<port id="3" precision="I64">
					<dim>4</dim>
				</port>
			</output>
		</layer>
		<layer id="253" name="Reshape_651" type="Reshape" version="opset1">
			<data special_zero="false" />
			<input>
				<port id="0" precision="FP32">
					<dim>36</dim>
				</port>
				<port id="1" precision="I64">
					<dim>4</dim>
				</port>
			</input>
			<output>
				<port id="2" precision="FP32">
					<dim>1</dim>
					<dim>36</dim>
					<dim>1</dim>
					<dim>1</dim>
				</port>
			</output>
		</layer>
		<layer id="254" name="node_Conv_1966" type="Add" version="opset1">
			<data auto_broadcast="numpy" />
			<input>
				<port id="0" precision="FP32">
					<dim>-1</dim>
					<dim>36</dim>
					<dim>40</dim>
					<dim>40</dim>
				</port>
				<port id="1" precision="FP32">
					<dim>1</dim>
					<dim>36</dim>
					<dim>1</dim>
					<dim>1</dim>
				</port>
			</input>
			<output>
				<port id="2" precision="FP32" names="getitem_36">
					<dim>-1</dim>
					<dim>36</dim>
					<dim>40</dim>
					<dim>40</dim>
				</port>
			</output>
		</layer>
		<layer id="255" name="node_relu_5" type="ReLU" version="opset1">
			<input>
				<port id="0" precision="FP32">
					<dim>-1</dim>
					<dim>36</dim>
					<dim>40</dim>
					<dim>40</dim>
				</port>
			</input>
			<output>
				<port id="1" precision="FP32" names="relu_5">
					<dim>-1</dim>
					<dim>36</dim>
					<dim>40</dim>
					<dim>40</dim>
				</port>
			</output>
		</layer>
		<layer id="256" name="blocks.2.0.ghost1.cheap_operation.0.weight_compressed" type="Const" version="opset1">
			<data element_type="f16" shape="36, 1, 3, 3" offset="8448" size="648" />
			<output>
				<port id="0" precision="FP16" names="blocks.2.0.ghost1.cheap_operation.0.weight">
					<dim>36</dim>
					<dim>1</dim>
					<dim>3</dim>
					<dim>3</dim>
				</port>
			</output>
		</layer>
		<layer id="257" name="blocks.2.0.ghost1.cheap_operation.0.weight" type="Convert" version="opset1">
			<data destination_type="f32" />
			<rt_info>
				<attribute name="decompression" version="0" />
			</rt_info>
			<input>
				<port id="0" precision="FP16">
					<dim>36</dim>
					<dim>1</dim>
					<dim>3</dim>
					<dim>3</dim>
				</port>
			</input>
			<output>
				<port id="1" precision="FP32">
					<dim>36</dim>
					<dim>1</dim>
					<dim>3</dim>
					<dim>3</dim>
				</port>
			</output>
		</layer>
		<layer id="258" name="Constant_656" type="Const" version="opset1">
			<data element_type="i64" shape="1" offset="9096" size="8" />
			<rt_info>
				<attribute name="precise" version="0" />
			</rt_info>
			<output>
				<port id="0" precision="I64">
					<dim>1</dim>
				</port>
			</output>
		</layer>
		<layer id="259" name="ShapeOf_657" type="ShapeOf" version="opset3">
			<data output_type="i64" />
			<input>
				<port id="0" precision="FP32">
					<dim>36</dim>
					<dim>1</dim>
					<dim>3</dim>
					<dim>3</dim>
				</port>
			</input>
			<output>
				<port id="1" precision="I64">
					<dim>4</dim>
				</port>
			</output>
		</layer>
		<layer id="260" name="Constant_654" type="Const" version="opset1">
			<data element_type="i64" shape="" offset="1336" size="8" />
			<rt_info>
				<attribute name="precise" version="0" />
			</rt_info>
			<output>
				<port id="0" precision="I64" />
			</output>
		</layer>
		<layer id="261" name="Constant_655" type="Const" version="opset1">
			<data element_type="i64" shape="2" offset="1344" size="16" />
			<rt_info>
				<attribute name="precise" version="0" />
			</rt_info>
			<output>
				<port id="0" precision="I64">
					<dim>2</dim>
				</port>
			</output>
		</layer>
		<layer id="262" name="VariadicSplit_658" type="VariadicSplit" version="opset1">
			<input>
				<port id="0" precision="I64">
					<dim>4</dim>
				</port>
				<port id="1" precision="I64" />
				<port id="2" precision="I64">
					<dim>2</dim>
				</port>
			</input>
			<output>
				<port id="3" precision="I64">
					<dim>1</dim>
				</port>
				<port id="4" precision="I64">
					<dim>3</dim>
				</port>
			</output>
		</layer>
		<layer id="263" name="Divide_659" type="Divide" version="opset1">
			<data auto_broadcast="numpy" m_pythondiv="true" />
			<input>
				<port id="0" precision="I64">
					<dim>1</dim>
				</port>
				<port id="1" precision="I64">
					<dim>1</dim>
				</port>
			</input>
			<output>
				<port id="2" precision="I64">
					<dim>1</dim>
				</port>
			</output>
		</layer>
		<layer id="264" name="Concat_660" type="Concat" version="opset1">
			<data axis="0" />
			<input>
				<port id="0" precision="I64">
					<dim>1</dim>
				</port>
				<port id="1" precision="I64">
					<dim>1</dim>
				</port>
				<port id="2" precision="I64">
					<dim>3</dim>
				</port>
			</input>
			<output>
				<port id="3" precision="I64">
					<dim>5</dim>
				</port>
			</output>
		</layer>
		<layer id="265" name="Reshape_661" type="Reshape" version="opset1">
			<data special_zero="false" />
			<input>
				<port id="0" precision="FP32">
					<dim>36</dim>
					<dim>1</dim>
					<dim>3</dim>
					<dim>3</dim>
				</port>
				<port id="1" precision="I64">
					<dim>5</dim>
				</port>
			</input>
			<output>
				<port id="2" precision="FP32">
					<dim>36</dim>
					<dim>1</dim>
					<dim>1</dim>
					<dim>3</dim>
					<dim>3</dim>
				</port>
			</output>
		</layer>
		<layer id="266" name="node_Conv_1968/WithoutBiases" type="GroupConvolution" version="opset1">
			<data strides="1, 1" pads_begin="1, 1" pads_end="1, 1" dilations="1, 1" auto_pad="explicit" />
			<input>
				<port id="0" precision="FP32">
					<dim>-1</dim>
					<dim>36</dim>
					<dim>40</dim>
					<dim>40</dim>
				</port>
				<port id="1" precision="FP32">
					<dim>36</dim>
					<dim>1</dim>
					<dim>1</dim>
					<dim>3</dim>
					<dim>3</dim>
				</port>
			</input>
			<output>
				<port id="2" precision="FP32">
					<dim>-1</dim>
					<dim>36</dim>
					<dim>40</dim>
					<dim>40</dim>
				</port>
			</output>
		</layer>
		<layer id="267" name="blocks.2.0.ghost1.cheap_operation.0.weight_bias_compressed" type="Const" version="opset1">
			<data element_type="f16" shape="36" offset="9104" size="72" />
			<output>
				<port id="0" precision="FP16" names="blocks.2.0.ghost1.cheap_operation.0.weight_bias">
					<dim>36</dim>
				</port>
			</output>
		</layer>
		<layer id="268" name="blocks.2.0.ghost1.cheap_operation.0.weight_bias" type="Convert" version="opset1">
			<data destination_type="f32" />
			<rt_info>
				<attribute name="decompression" version="0" />
			</rt_info>
			<input>
				<port id="0" precision="FP16">
					<dim>36</dim>
				</port>
			</input>
			<output>
				<port id="1" precision="FP32">
					<dim>36</dim>
				</port>
			</output>
		</layer>
		<layer id="269" name="Constant_703" type="Const" version="opset1">
			<data element_type="i64" shape="1" offset="896" size="8" />
			<rt_info>
				<attribute name="precise" version="0" />
			</rt_info>
			<output>
				<port id="0" precision="I64">
					<dim>1</dim>
				</port>
			</output>
		</layer>
		<layer id="270" name="ShapeOf_709" type="ShapeOf" version="opset3">
			<data output_type="i64" />
			<input>
				<port id="0" precision="FP32">
					<dim>36</dim>
				</port>
			</input>
			<output>
				<port id="1" precision="I64">
					<dim>1</dim>
				</port>
			</output>
		</layer>
		<layer id="271" name="ShapeOf_701" type="ShapeOf" version="opset3">
			<data output_type="i64" />
			<input>
				<port id="0" precision="FP32">
					<dim>-1</dim>
					<dim>36</dim>
					<dim>40</dim>
					<dim>40</dim>
				</port>
			</input>
			<output>
				<port id="1" precision="I64">
					<dim>4</dim>
				</port>
			</output>
		</layer>
		<layer id="272" name="ShapeOf_702" type="ShapeOf" version="opset3">
			<data output_type="i64" />
			<input>
				<port id="0" precision="I64">
					<dim>4</dim>
				</port>
			</input>
			<output>
				<port id="1" precision="I64">
					<dim>1</dim>
				</port>
			</output>
		</layer>
		<layer id="273" name="Constant_704" type="Const" version="opset1">
			<data element_type="i64" shape="1" offset="904" size="8" />
			<rt_info>
				<attribute name="precise" version="0" />
			</rt_info>
			<output>
				<port id="0" precision="I64">
					<dim>1</dim>
				</port>
			</output>
		</layer>
		<layer id="274" name="Subtract_705" type="Subtract" version="opset1">
			<data auto_broadcast="numpy" />
			<input>
				<port id="0" precision="I64">
					<dim>1</dim>
				</port>
				<port id="1" precision="I64">
					<dim>1</dim>
				</port>
			</input>
			<output>
				<port id="2" precision="I64">
					<dim>1</dim>
				</port>
			</output>
		</layer>
		<layer id="275" name="Broadcast_706" type="Broadcast" version="opset3">
			<data mode="numpy" />
			<input>
				<port id="0" precision="I64">
					<dim>1</dim>
				</port>
				<port id="1" precision="I64">
					<dim>1</dim>
				</port>
			</input>
			<output>
				<port id="2" precision="I64">
					<dim>2</dim>
				</port>
			</output>
		</layer>
		<layer id="276" name="Concat_710" type="Concat" version="opset1">
			<data axis="0" />
			<input>
				<port id="0" precision="I64">
					<dim>1</dim>
				</port>
				<port id="1" precision="I64">
					<dim>1</dim>
				</port>
				<port id="2" precision="I64">
					<dim>2</dim>
				</port>
			</input>
			<output>
				<port id="3" precision="I64">
					<dim>4</dim>
				</port>
			</output>
		</layer>
		<layer id="277" name="Reshape_711" type="Reshape" version="opset1">
			<data special_zero="false" />
			<input>
				<port id="0" precision="FP32">
					<dim>36</dim>
				</port>
				<port id="1" precision="I64">
					<dim>4</dim>
				</port>
			</input>
			<output>
				<port id="2" precision="FP32">
					<dim>1</dim>
					<dim>36</dim>
					<dim>1</dim>
					<dim>1</dim>
				</port>
			</output>
		</layer>
		<layer id="278" name="node_Conv_1968" type="Add" version="opset1">
			<data auto_broadcast="numpy" />
			<input>
				<port id="0" precision="FP32">
					<dim>-1</dim>
					<dim>36</dim>
					<dim>40</dim>
					<dim>40</dim>
				</port>
				<port id="1" precision="FP32">
					<dim>1</dim>
					<dim>36</dim>
					<dim>1</dim>
					<dim>1</dim>
				</port>
			</input>
			<output>
				<port id="2" precision="FP32" names="getitem_39">
					<dim>-1</dim>
					<dim>36</dim>
					<dim>40</dim>
					<dim>40</dim>
				</port>
			</output>
		</layer>
		<layer id="279" name="node_relu_6" type="ReLU" version="opset1">
			<input>
				<port id="0" precision="FP32">
					<dim>-1</dim>
					<dim>36</dim>
					<dim>40</dim>
					<dim>40</dim>
				</port>
			</input>
			<output>
				<port id="1" precision="FP32" names="relu_6">
					<dim>-1</dim>
					<dim>36</dim>
					<dim>40</dim>
					<dim>40</dim>
				</port>
			</output>
		</layer>
		<layer id="280" name="node_cat_4" type="Concat" version="opset1">
			<data axis="1" />
			<input>
				<port id="0" precision="FP32">
					<dim>-1</dim>
					<dim>36</dim>
					<dim>40</dim>
					<dim>40</dim>
				</port>
				<port id="1" precision="FP32">
					<dim>-1</dim>
					<dim>36</dim>
					<dim>40</dim>
					<dim>40</dim>
				</port>
			</input>
			<output>
				<port id="2" precision="FP32" names="cat_4">
					<dim>-1</dim>
					<dim>72</dim>
					<dim>40</dim>
					<dim>40</dim>
				</port>
			</output>
		</layer>
		<layer id="281" name="blocks.2.0.ghost2.primary_conv.0.weight_compressed" type="Const" version="opset1">
			<data element_type="f16" shape="12, 72, 1, 1" offset="9176" size="1728" />
			<output>
				<port id="0" precision="FP16" names="blocks.2.0.ghost2.primary_conv.0.weight">
					<dim>12</dim>
					<dim>72</dim>
					<dim>1</dim>
					<dim>1</dim>
				</port>
			</output>
		</layer>
		<layer id="282" name="blocks.2.0.ghost2.primary_conv.0.weight" type="Convert" version="opset1">
			<data destination_type="f32" />
			<rt_info>
				<attribute name="decompression" version="0" />
			</rt_info>
			<input>
				<port id="0" precision="FP16">
					<dim>12</dim>
					<dim>72</dim>
					<dim>1</dim>
					<dim>1</dim>
				</port>
			</input>
			<output>
				<port id="1" precision="FP32">
					<dim>12</dim>
					<dim>72</dim>
					<dim>1</dim>
					<dim>1</dim>
				</port>
			</output>
		</layer>
		<layer id="283" name="node_Conv_1971/WithoutBiases" type="Convolution" version="opset1">
			<data strides="1, 1" dilations="1, 1" pads_begin="0, 0" pads_end="0, 0" auto_pad="explicit" />
			<input>
				<port id="0" precision="FP32">
					<dim>-1</dim>
					<dim>72</dim>
					<dim>40</dim>
					<dim>40</dim>
				</port>
				<port id="1" precision="FP32">
					<dim>12</dim>
					<dim>72</dim>
					<dim>1</dim>
					<dim>1</dim>
				</port>
			</input>
			<output>
				<port id="2" precision="FP32">
					<dim>-1</dim>
					<dim>12</dim>
					<dim>40</dim>
					<dim>40</dim>
				</port>
			</output>
		</layer>
		<layer id="284" name="blocks.2.0.ghost2.primary_conv.0.weight_bias_compressed" type="Const" version="opset1">
			<data element_type="f16" shape="12" offset="10904" size="24" />
			<output>
				<port id="0" precision="FP16" names="blocks.2.0.ghost2.primary_conv.0.weight_bias">
					<dim>12</dim>
				</port>
			</output>
		</layer>
		<layer id="285" name="blocks.2.0.ghost2.primary_conv.0.weight_bias" type="Convert" version="opset1">
			<data destination_type="f32" />
			<rt_info>
				<attribute name="decompression" version="0" />
			</rt_info>
			<input>
				<port id="0" precision="FP16">
					<dim>12</dim>
				</port>
			</input>
			<output>
				<port id="1" precision="FP32">
					<dim>12</dim>
				</port>
			</output>
		</layer>
		<layer id="286" name="Constant_718" type="Const" version="opset1">
			<data element_type="i64" shape="1" offset="896" size="8" />
			<rt_info>
				<attribute name="precise" version="0" />
			</rt_info>
			<output>
				<port id="0" precision="I64">
					<dim>1</dim>
				</port>
			</output>
		</layer>
		<layer id="287" name="ShapeOf_724" type="ShapeOf" version="opset3">
			<data output_type="i64" />
			<input>
				<port id="0" precision="FP32">
					<dim>12</dim>
				</port>
			</input>
			<output>
				<port id="1" precision="I64">
					<dim>1</dim>
				</port>
			</output>
		</layer>
		<layer id="288" name="ShapeOf_716" type="ShapeOf" version="opset3">
			<data output_type="i64" />
			<input>
				<port id="0" precision="FP32">
					<dim>-1</dim>
					<dim>12</dim>
					<dim>40</dim>
					<dim>40</dim>
				</port>
			</input>
			<output>
				<port id="1" precision="I64">
					<dim>4</dim>
				</port>
			</output>
		</layer>
		<layer id="289" name="ShapeOf_717" type="ShapeOf" version="opset3">
			<data output_type="i64" />
			<input>
				<port id="0" precision="I64">
					<dim>4</dim>
				</port>
			</input>
			<output>
				<port id="1" precision="I64">
					<dim>1</dim>
				</port>
			</output>
		</layer>
		<layer id="290" name="Constant_719" type="Const" version="opset1">
			<data element_type="i64" shape="1" offset="904" size="8" />
			<rt_info>
				<attribute name="precise" version="0" />
			</rt_info>
			<output>
				<port id="0" precision="I64">
					<dim>1</dim>
				</port>
			</output>
		</layer>
		<layer id="291" name="Subtract_720" type="Subtract" version="opset1">
			<data auto_broadcast="numpy" />
			<input>
				<port id="0" precision="I64">
					<dim>1</dim>
				</port>
				<port id="1" precision="I64">
					<dim>1</dim>
				</port>
			</input>
			<output>
				<port id="2" precision="I64">
					<dim>1</dim>
				</port>
			</output>
		</layer>
		<layer id="292" name="Broadcast_721" type="Broadcast" version="opset3">
			<data mode="numpy" />
			<input>
				<port id="0" precision="I64">
					<dim>1</dim>
				</port>
				<port id="1" precision="I64">
					<dim>1</dim>
				</port>
			</input>
			<output>
				<port id="2" precision="I64">
					<dim>2</dim>
				</port>
			</output>
		</layer>
		<layer id="293" name="Concat_725" type="Concat" version="opset1">
			<data axis="0" />
			<input>
				<port id="0" precision="I64">
					<dim>1</dim>
				</port>
				<port id="1" precision="I64">
					<dim>1</dim>
				</port>
				<port id="2" precision="I64">
					<dim>2</dim>
				</port>
			</input>
			<output>
				<port id="3" precision="I64">
					<dim>4</dim>
				</port>
			</output>
		</layer>
		<layer id="294" name="Reshape_726" type="Reshape" version="opset1">
			<data special_zero="false" />
			<input>
				<port id="0" precision="FP32">
					<dim>12</dim>
				</port>
				<port id="1" precision="I64">
					<dim>4</dim>
				</port>
			</input>
			<output>
				<port id="2" precision="FP32">
					<dim>1</dim>
					<dim>12</dim>
					<dim>1</dim>
					<dim>1</dim>
				</port>
			</output>
		</layer>
		<layer id="295" name="node_Conv_1971" type="Add" version="opset1">
			<data auto_broadcast="numpy" />
			<input>
				<port id="0" precision="FP32">
					<dim>-1</dim>
					<dim>12</dim>
					<dim>40</dim>
					<dim>40</dim>
				</port>
				<port id="1" precision="FP32">
					<dim>1</dim>
					<dim>12</dim>
					<dim>1</dim>
					<dim>1</dim>
				</port>
			</input>
			<output>
				<port id="2" precision="FP32" names="getitem_42">
					<dim>-1</dim>
					<dim>12</dim>
					<dim>40</dim>
					<dim>40</dim>
				</port>
			</output>
		</layer>
		<layer id="296" name="blocks.2.0.ghost2.cheap_operation.0.weight_compressed" type="Const" version="opset1">
			<data element_type="f16" shape="12, 1, 3, 3" offset="10928" size="216" />
			<output>
				<port id="0" precision="FP16" names="blocks.2.0.ghost2.cheap_operation.0.weight">
					<dim>12</dim>
					<dim>1</dim>
					<dim>3</dim>
					<dim>3</dim>
				</port>
			</output>
		</layer>
		<layer id="297" name="blocks.2.0.ghost2.cheap_operation.0.weight" type="Convert" version="opset1">
			<data destination_type="f32" />
			<rt_info>
				<attribute name="decompression" version="0" />
			</rt_info>
			<input>
				<port id="0" precision="FP16">
					<dim>12</dim>
					<dim>1</dim>
					<dim>3</dim>
					<dim>3</dim>
				</port>
			</input>
			<output>
				<port id="1" precision="FP32">
					<dim>12</dim>
					<dim>1</dim>
					<dim>3</dim>
					<dim>3</dim>
				</port>
			</output>
		</layer>
		<layer id="298" name="Constant_730" type="Const" version="opset1">
			<data element_type="i64" shape="1" offset="5472" size="8" />
			<rt_info>
				<attribute name="precise" version="0" />
			</rt_info>
			<output>
				<port id="0" precision="I64">
					<dim>1</dim>
				</port>
			</output>
		</layer>
		<layer id="299" name="ShapeOf_731" type="ShapeOf" version="opset3">
			<data output_type="i64" />
			<input>
				<port id="0" precision="FP32">
					<dim>12</dim>
					<dim>1</dim>
					<dim>3</dim>
					<dim>3</dim>
				</port>
			</input>
			<output>
				<port id="1" precision="I64">
					<dim>4</dim>
				</port>
			</output>
		</layer>
		<layer id="300" name="Constant_728" type="Const" version="opset1">
			<data element_type="i64" shape="" offset="1336" size="8" />
			<rt_info>
				<attribute name="precise" version="0" />
			</rt_info>
			<output>
				<port id="0" precision="I64" />
			</output>
		</layer>
		<layer id="301" name="Constant_729" type="Const" version="opset1">
			<data element_type="i64" shape="2" offset="1344" size="16" />
			<rt_info>
				<attribute name="precise" version="0" />
			</rt_info>
			<output>
				<port id="0" precision="I64">
					<dim>2</dim>
				</port>
			</output>
		</layer>
		<layer id="302" name="VariadicSplit_732" type="VariadicSplit" version="opset1">
			<input>
				<port id="0" precision="I64">
					<dim>4</dim>
				</port>
				<port id="1" precision="I64" />
				<port id="2" precision="I64">
					<dim>2</dim>
				</port>
			</input>
			<output>
				<port id="3" precision="I64">
					<dim>1</dim>
				</port>
				<port id="4" precision="I64">
					<dim>3</dim>
				</port>
			</output>
		</layer>
		<layer id="303" name="Divide_733" type="Divide" version="opset1">
			<data auto_broadcast="numpy" m_pythondiv="true" />
			<input>
				<port id="0" precision="I64">
					<dim>1</dim>
				</port>
				<port id="1" precision="I64">
					<dim>1</dim>
				</port>
			</input>
			<output>
				<port id="2" precision="I64">
					<dim>1</dim>
				</port>
			</output>
		</layer>
		<layer id="304" name="Concat_734" type="Concat" version="opset1">
			<data axis="0" />
			<input>
				<port id="0" precision="I64">
					<dim>1</dim>
				</port>
				<port id="1" precision="I64">
					<dim>1</dim>
				</port>
				<port id="2" precision="I64">
					<dim>3</dim>
				</port>
			</input>
			<output>
				<port id="3" precision="I64">
					<dim>5</dim>
				</port>
			</output>
		</layer>
		<layer id="305" name="Reshape_735" type="Reshape" version="opset1">
			<data special_zero="false" />
			<input>
				<port id="0" precision="FP32">
					<dim>12</dim>
					<dim>1</dim>
					<dim>3</dim>
					<dim>3</dim>
				</port>
				<port id="1" precision="I64">
					<dim>5</dim>
				</port>
			</input>
			<output>
				<port id="2" precision="FP32">
					<dim>12</dim>
					<dim>1</dim>
					<dim>1</dim>
					<dim>3</dim>
					<dim>3</dim>
				</port>
			</output>
		</layer>
		<layer id="306" name="node_Conv_1973/WithoutBiases" type="GroupConvolution" version="opset1">
			<data strides="1, 1" pads_begin="1, 1" pads_end="1, 1" dilations="1, 1" auto_pad="explicit" />
			<input>
				<port id="0" precision="FP32">
					<dim>-1</dim>
					<dim>12</dim>
					<dim>40</dim>
					<dim>40</dim>
				</port>
				<port id="1" precision="FP32">
					<dim>12</dim>
					<dim>1</dim>
					<dim>1</dim>
					<dim>3</dim>
					<dim>3</dim>
				</port>
			</input>
			<output>
				<port id="2" precision="FP32">
					<dim>-1</dim>
					<dim>12</dim>
					<dim>40</dim>
					<dim>40</dim>
				</port>
			</output>
		</layer>
		<layer id="307" name="blocks.2.0.ghost2.cheap_operation.0.weight_bias_compressed" type="Const" version="opset1">
			<data element_type="f16" shape="12" offset="11144" size="24" />
			<output>
				<port id="0" precision="FP16" names="blocks.2.0.ghost2.cheap_operation.0.weight_bias">
					<dim>12</dim>
				</port>
			</output>
		</layer>
		<layer id="308" name="blocks.2.0.ghost2.cheap_operation.0.weight_bias" type="Convert" version="opset1">
			<data destination_type="f32" />
			<rt_info>
				<attribute name="decompression" version="0" />
			</rt_info>
			<input>
				<port id="0" precision="FP16">
					<dim>12</dim>
				</port>
			</input>
			<output>
				<port id="1" precision="FP32">
					<dim>12</dim>
				</port>
			</output>
		</layer>
		<layer id="309" name="Constant_777" type="Const" version="opset1">
			<data element_type="i64" shape="1" offset="896" size="8" />
			<rt_info>
				<attribute name="precise" version="0" />
			</rt_info>
			<output>
				<port id="0" precision="I64">
					<dim>1</dim>
				</port>
			</output>
		</layer>
		<layer id="310" name="ShapeOf_783" type="ShapeOf" version="opset3">
			<data output_type="i64" />
			<input>
				<port id="0" precision="FP32">
					<dim>12</dim>
				</port>
			</input>
			<output>
				<port id="1" precision="I64">
					<dim>1</dim>
				</port>
			</output>
		</layer>
		<layer id="311" name="ShapeOf_775" type="ShapeOf" version="opset3">
			<data output_type="i64" />
			<input>
				<port id="0" precision="FP32">
					<dim>-1</dim>
					<dim>12</dim>
					<dim>40</dim>
					<dim>40</dim>
				</port>
			</input>
			<output>
				<port id="1" precision="I64">
					<dim>4</dim>
				</port>
			</output>
		</layer>
		<layer id="312" name="ShapeOf_776" type="ShapeOf" version="opset3">
			<data output_type="i64" />
			<input>
				<port id="0" precision="I64">
					<dim>4</dim>
				</port>
			</input>
			<output>
				<port id="1" precision="I64">
					<dim>1</dim>
				</port>
			</output>
		</layer>
		<layer id="313" name="Constant_778" type="Const" version="opset1">
			<data element_type="i64" shape="1" offset="904" size="8" />
			<rt_info>
				<attribute name="precise" version="0" />
			</rt_info>
			<output>
				<port id="0" precision="I64">
					<dim>1</dim>
				</port>
			</output>
		</layer>
		<layer id="314" name="Subtract_779" type="Subtract" version="opset1">
			<data auto_broadcast="numpy" />
			<input>
				<port id="0" precision="I64">
					<dim>1</dim>
				</port>
				<port id="1" precision="I64">
					<dim>1</dim>
				</port>
			</input>
			<output>
				<port id="2" precision="I64">
					<dim>1</dim>
				</port>
			</output>
		</layer>
		<layer id="315" name="Broadcast_780" type="Broadcast" version="opset3">
			<data mode="numpy" />
			<input>
				<port id="0" precision="I64">
					<dim>1</dim>
				</port>
				<port id="1" precision="I64">
					<dim>1</dim>
				</port>
			</input>
			<output>
				<port id="2" precision="I64">
					<dim>2</dim>
				</port>
			</output>
		</layer>
		<layer id="316" name="Concat_784" type="Concat" version="opset1">
			<data axis="0" />
			<input>
				<port id="0" precision="I64">
					<dim>1</dim>
				</port>
				<port id="1" precision="I64">
					<dim>1</dim>
				</port>
				<port id="2" precision="I64">
					<dim>2</dim>
				</port>
			</input>
			<output>
				<port id="3" precision="I64">
					<dim>4</dim>
				</port>
			</output>
		</layer>
		<layer id="317" name="Reshape_785" type="Reshape" version="opset1">
			<data special_zero="false" />
			<input>
				<port id="0" precision="FP32">
					<dim>12</dim>
				</port>
				<port id="1" precision="I64">
					<dim>4</dim>
				</port>
			</input>
			<output>
				<port id="2" precision="FP32">
					<dim>1</dim>
					<dim>12</dim>
					<dim>1</dim>
					<dim>1</dim>
				</port>
			</output>
		</layer>
		<layer id="318" name="node_Conv_1973" type="Add" version="opset1">
			<data auto_broadcast="numpy" />
			<input>
				<port id="0" precision="FP32">
					<dim>-1</dim>
					<dim>12</dim>
					<dim>40</dim>
					<dim>40</dim>
				</port>
				<port id="1" precision="FP32">
					<dim>1</dim>
					<dim>12</dim>
					<dim>1</dim>
					<dim>1</dim>
				</port>
			</input>
			<output>
				<port id="2" precision="FP32" names="getitem_45">
					<dim>-1</dim>
					<dim>12</dim>
					<dim>40</dim>
					<dim>40</dim>
				</port>
			</output>
		</layer>
		<layer id="319" name="node_cat_5" type="Concat" version="opset1">
			<data axis="1" />
			<input>
				<port id="0" precision="FP32">
					<dim>-1</dim>
					<dim>12</dim>
					<dim>40</dim>
					<dim>40</dim>
				</port>
				<port id="1" precision="FP32">
					<dim>-1</dim>
					<dim>12</dim>
					<dim>40</dim>
					<dim>40</dim>
				</port>
			</input>
			<output>
				<port id="2" precision="FP32" names="cat_5">
					<dim>-1</dim>
					<dim>24</dim>
					<dim>40</dim>
					<dim>40</dim>
				</port>
			</output>
		</layer>
		<layer id="320" name="node_add_7" type="Add" version="opset1">
			<data auto_broadcast="numpy" />
			<input>
				<port id="0" precision="FP32">
					<dim>-1</dim>
					<dim>24</dim>
					<dim>40</dim>
					<dim>40</dim>
				</port>
				<port id="1" precision="FP32">
					<dim>-1</dim>
					<dim>24</dim>
					<dim>40</dim>
					<dim>40</dim>
				</port>
			</input>
			<output>
				<port id="2" precision="FP32" names="add_7">
					<dim>-1</dim>
					<dim>24</dim>
					<dim>40</dim>
					<dim>40</dim>
				</port>
			</output>
		</layer>
		<layer id="321" name="blocks.3.0.ghost1.primary_conv.0.weight_compressed" type="Const" version="opset1">
			<data element_type="f16" shape="36, 24, 1, 1" offset="11168" size="1728" />
			<output>
				<port id="0" precision="FP16" names="blocks.3.0.ghost1.primary_conv.0.weight">
					<dim>36</dim>
					<dim>24</dim>
					<dim>1</dim>
					<dim>1</dim>
				</port>
			</output>
		</layer>
		<layer id="322" name="blocks.3.0.ghost1.primary_conv.0.weight" type="Convert" version="opset1">
			<data destination_type="f32" />
			<rt_info>
				<attribute name="decompression" version="0" />
			</rt_info>
			<input>
				<port id="0" precision="FP16">
					<dim>36</dim>
					<dim>24</dim>
					<dim>1</dim>
					<dim>1</dim>
				</port>
			</input>
			<output>
				<port id="1" precision="FP32">
					<dim>36</dim>
					<dim>24</dim>
					<dim>1</dim>
					<dim>1</dim>
				</port>
			</output>
		</layer>
		<layer id="323" name="node_Conv_1978/WithoutBiases" type="Convolution" version="opset1">
			<data strides="1, 1" dilations="1, 1" pads_begin="0, 0" pads_end="0, 0" auto_pad="explicit" />
			<input>
				<port id="0" precision="FP32">
					<dim>-1</dim>
					<dim>24</dim>
					<dim>40</dim>
					<dim>40</dim>
				</port>
				<port id="1" precision="FP32">
					<dim>36</dim>
					<dim>24</dim>
					<dim>1</dim>
					<dim>1</dim>
				</port>
			</input>
			<output>
				<port id="2" precision="FP32">
					<dim>-1</dim>
					<dim>36</dim>
					<dim>40</dim>
					<dim>40</dim>
				</port>
			</output>
		</layer>
		<layer id="324" name="blocks.3.0.ghost1.primary_conv.0.weight_bias_compressed" type="Const" version="opset1">
			<data element_type="f16" shape="36" offset="12896" size="72" />
			<output>
				<port id="0" precision="FP16" names="blocks.3.0.ghost1.primary_conv.0.weight_bias">
					<dim>36</dim>
				</port>
			</output>
		</layer>
		<layer id="325" name="blocks.3.0.ghost1.primary_conv.0.weight_bias" type="Convert" version="opset1">
			<data destination_type="f32" />
			<rt_info>
				<attribute name="decompression" version="0" />
			</rt_info>
			<input>
				<port id="0" precision="FP16">
					<dim>36</dim>
				</port>
			</input>
			<output>
				<port id="1" precision="FP32">
					<dim>36</dim>
				</port>
			</output>
		</layer>
		<layer id="326" name="Constant_792" type="Const" version="opset1">
			<data element_type="i64" shape="1" offset="896" size="8" />
			<rt_info>
				<attribute name="precise" version="0" />
			</rt_info>
			<output>
				<port id="0" precision="I64">
					<dim>1</dim>
				</port>
			</output>
		</layer>
		<layer id="327" name="ShapeOf_798" type="ShapeOf" version="opset3">
			<data output_type="i64" />
			<input>
				<port id="0" precision="FP32">
					<dim>36</dim>
				</port>
			</input>
			<output>
				<port id="1" precision="I64">
					<dim>1</dim>
				</port>
			</output>
		</layer>
		<layer id="328" name="ShapeOf_790" type="ShapeOf" version="opset3">
			<data output_type="i64" />
			<input>
				<port id="0" precision="FP32">
					<dim>-1</dim>
					<dim>36</dim>
					<dim>40</dim>
					<dim>40</dim>
				</port>
			</input>
			<output>
				<port id="1" precision="I64">
					<dim>4</dim>
				</port>
			</output>
		</layer>
		<layer id="329" name="ShapeOf_791" type="ShapeOf" version="opset3">
			<data output_type="i64" />
			<input>
				<port id="0" precision="I64">
					<dim>4</dim>
				</port>
			</input>
			<output>
				<port id="1" precision="I64">
					<dim>1</dim>
				</port>
			</output>
		</layer>
		<layer id="330" name="Constant_793" type="Const" version="opset1">
			<data element_type="i64" shape="1" offset="904" size="8" />
			<rt_info>
				<attribute name="precise" version="0" />
			</rt_info>
			<output>
				<port id="0" precision="I64">
					<dim>1</dim>
				</port>
			</output>
		</layer>
		<layer id="331" name="Subtract_794" type="Subtract" version="opset1">
			<data auto_broadcast="numpy" />
			<input>
				<port id="0" precision="I64">
					<dim>1</dim>
				</port>
				<port id="1" precision="I64">
					<dim>1</dim>
				</port>
			</input>
			<output>
				<port id="2" precision="I64">
					<dim>1</dim>
				</port>
			</output>
		</layer>
		<layer id="332" name="Broadcast_795" type="Broadcast" version="opset3">
			<data mode="numpy" />
			<input>
				<port id="0" precision="I64">
					<dim>1</dim>
				</port>
				<port id="1" precision="I64">
					<dim>1</dim>
				</port>
			</input>
			<output>
				<port id="2" precision="I64">
					<dim>2</dim>
				</port>
			</output>
		</layer>
		<layer id="333" name="Concat_799" type="Concat" version="opset1">
			<data axis="0" />
			<input>
				<port id="0" precision="I64">
					<dim>1</dim>
				</port>
				<port id="1" precision="I64">
					<dim>1</dim>
				</port>
				<port id="2" precision="I64">
					<dim>2</dim>
				</port>
			</input>
			<output>
				<port id="3" precision="I64">
					<dim>4</dim>
				</port>
			</output>
		</layer>
		<layer id="334" name="Reshape_800" type="Reshape" version="opset1">
			<data special_zero="false" />
			<input>
				<port id="0" precision="FP32">
					<dim>36</dim>
				</port>
				<port id="1" precision="I64">
					<dim>4</dim>
				</port>
			</input>
			<output>
				<port id="2" precision="FP32">
					<dim>1</dim>
					<dim>36</dim>
					<dim>1</dim>
					<dim>1</dim>
				</port>
			</output>
		</layer>
		<layer id="335" name="node_Conv_1978" type="Add" version="opset1">
			<data auto_broadcast="numpy" />
			<input>
				<port id="0" precision="FP32">
					<dim>-1</dim>
					<dim>36</dim>
					<dim>40</dim>
					<dim>40</dim>
				</port>
				<port id="1" precision="FP32">
					<dim>1</dim>
					<dim>36</dim>
					<dim>1</dim>
					<dim>1</dim>
				</port>
			</input>
			<output>
				<port id="2" precision="FP32" names="getitem_48">
					<dim>-1</dim>
					<dim>36</dim>
					<dim>40</dim>
					<dim>40</dim>
				</port>
			</output>
		</layer>
		<layer id="336" name="node_relu_7" type="ReLU" version="opset1">
			<input>
				<port id="0" precision="FP32">
					<dim>-1</dim>
					<dim>36</dim>
					<dim>40</dim>
					<dim>40</dim>
				</port>
			</input>
			<output>
				<port id="1" precision="FP32" names="relu_7">
					<dim>-1</dim>
					<dim>36</dim>
					<dim>40</dim>
					<dim>40</dim>
				</port>
			</output>
		</layer>
		<layer id="337" name="blocks.3.0.ghost1.cheap_operation.0.weight_compressed" type="Const" version="opset1">
			<data element_type="f16" shape="36, 1, 3, 3" offset="12968" size="648" />
			<output>
				<port id="0" precision="FP16" names="blocks.3.0.ghost1.cheap_operation.0.weight">
					<dim>36</dim>
					<dim>1</dim>
					<dim>3</dim>
					<dim>3</dim>
				</port>
			</output>
		</layer>
		<layer id="338" name="blocks.3.0.ghost1.cheap_operation.0.weight" type="Convert" version="opset1">
			<data destination_type="f32" />
			<rt_info>
				<attribute name="decompression" version="0" />
			</rt_info>
			<input>
				<port id="0" precision="FP16">
					<dim>36</dim>
					<dim>1</dim>
					<dim>3</dim>
					<dim>3</dim>
				</port>
			</input>
			<output>
				<port id="1" precision="FP32">
					<dim>36</dim>
					<dim>1</dim>
					<dim>3</dim>
					<dim>3</dim>
				</port>
			</output>
		</layer>
		<layer id="339" name="Constant_805" type="Const" version="opset1">
			<data element_type="i64" shape="1" offset="9096" size="8" />
			<rt_info>
				<attribute name="precise" version="0" />
			</rt_info>
			<output>
				<port id="0" precision="I64">
					<dim>1</dim>
				</port>
			</output>
		</layer>
		<layer id="340" name="ShapeOf_806" type="ShapeOf" version="opset3">
			<data output_type="i64" />
			<input>
				<port id="0" precision="FP32">
					<dim>36</dim>
					<dim>1</dim>
					<dim>3</dim>
					<dim>3</dim>
				</port>
			</input>
			<output>
				<port id="1" precision="I64">
					<dim>4</dim>
				</port>
			</output>
		</layer>
		<layer id="341" name="Constant_803" type="Const" version="opset1">
			<data element_type="i64" shape="" offset="1336" size="8" />
			<rt_info>
				<attribute name="precise" version="0" />
			</rt_info>
			<output>
				<port id="0" precision="I64" />
			</output>
		</layer>
		<layer id="342" name="Constant_804" type="Const" version="opset1">
			<data element_type="i64" shape="2" offset="1344" size="16" />
			<rt_info>
				<attribute name="precise" version="0" />
			</rt_info>
			<output>
				<port id="0" precision="I64">
					<dim>2</dim>
				</port>
			</output>
		</layer>
		<layer id="343" name="VariadicSplit_807" type="VariadicSplit" version="opset1">
			<input>
				<port id="0" precision="I64">
					<dim>4</dim>
				</port>
				<port id="1" precision="I64" />
				<port id="2" precision="I64">
					<dim>2</dim>
				</port>
			</input>
			<output>
				<port id="3" precision="I64">
					<dim>1</dim>
				</port>
				<port id="4" precision="I64">
					<dim>3</dim>
				</port>
			</output>
		</layer>
		<layer id="344" name="Divide_808" type="Divide" version="opset1">
			<data auto_broadcast="numpy" m_pythondiv="true" />
			<input>
				<port id="0" precision="I64">
					<dim>1</dim>
				</port>
				<port id="1" precision="I64">
					<dim>1</dim>
				</port>
			</input>
			<output>
				<port id="2" precision="I64">
					<dim>1</dim>
				</port>
			</output>
		</layer>
		<layer id="345" name="Concat_809" type="Concat" version="opset1">
			<data axis="0" />
			<input>
				<port id="0" precision="I64">
					<dim>1</dim>
				</port>
				<port id="1" precision="I64">
					<dim>1</dim>
				</port>
				<port id="2" precision="I64">
					<dim>3</dim>
				</port>
			</input>
			<output>
				<port id="3" precision="I64">
					<dim>5</dim>
				</port>
			</output>
		</layer>
		<layer id="346" name="Reshape_810" type="Reshape" version="opset1">
			<data special_zero="false" />
			<input>
				<port id="0" precision="FP32">
					<dim>36</dim>
					<dim>1</dim>
					<dim>3</dim>
					<dim>3</dim>
				</port>
				<port id="1" precision="I64">
					<dim>5</dim>
				</port>
			</input>
			<output>
				<port id="2" precision="FP32">
					<dim>36</dim>
					<dim>1</dim>
					<dim>1</dim>
					<dim>3</dim>
					<dim>3</dim>
				</port>
			</output>
		</layer>
		<layer id="347" name="node_Conv_1980/WithoutBiases" type="GroupConvolution" version="opset1">
			<data strides="1, 1" pads_begin="1, 1" pads_end="1, 1" dilations="1, 1" auto_pad="explicit" />
			<input>
				<port id="0" precision="FP32">
					<dim>-1</dim>
					<dim>36</dim>
					<dim>40</dim>
					<dim>40</dim>
				</port>
				<port id="1" precision="FP32">
					<dim>36</dim>
					<dim>1</dim>
					<dim>1</dim>
					<dim>3</dim>
					<dim>3</dim>
				</port>
			</input>
			<output>
				<port id="2" precision="FP32">
					<dim>-1</dim>
					<dim>36</dim>
					<dim>40</dim>
					<dim>40</dim>
				</port>
			</output>
		</layer>
		<layer id="348" name="blocks.3.0.ghost1.cheap_operation.0.weight_bias_compressed" type="Const" version="opset1">
			<data element_type="f16" shape="36" offset="13616" size="72" />
			<output>
				<port id="0" precision="FP16" names="blocks.3.0.ghost1.cheap_operation.0.weight_bias">
					<dim>36</dim>
				</port>
			</output>
		</layer>
		<layer id="349" name="blocks.3.0.ghost1.cheap_operation.0.weight_bias" type="Convert" version="opset1">
			<data destination_type="f32" />
			<rt_info>
				<attribute name="decompression" version="0" />
			</rt_info>
			<input>
				<port id="0" precision="FP16">
					<dim>36</dim>
				</port>
			</input>
			<output>
				<port id="1" precision="FP32">
					<dim>36</dim>
				</port>
			</output>
		</layer>
		<layer id="350" name="Constant_852" type="Const" version="opset1">
			<data element_type="i64" shape="1" offset="896" size="8" />
			<rt_info>
				<attribute name="precise" version="0" />
			</rt_info>
			<output>
				<port id="0" precision="I64">
					<dim>1</dim>
				</port>
			</output>
		</layer>
		<layer id="351" name="ShapeOf_858" type="ShapeOf" version="opset3">
			<data output_type="i64" />
			<input>
				<port id="0" precision="FP32">
					<dim>36</dim>
				</port>
			</input>
			<output>
				<port id="1" precision="I64">
					<dim>1</dim>
				</port>
			</output>
		</layer>
		<layer id="352" name="ShapeOf_850" type="ShapeOf" version="opset3">
			<data output_type="i64" />
			<input>
				<port id="0" precision="FP32">
					<dim>-1</dim>
					<dim>36</dim>
					<dim>40</dim>
					<dim>40</dim>
				</port>
			</input>
			<output>
				<port id="1" precision="I64">
					<dim>4</dim>
				</port>
			</output>
		</layer>
		<layer id="353" name="ShapeOf_851" type="ShapeOf" version="opset3">
			<data output_type="i64" />
			<input>
				<port id="0" precision="I64">
					<dim>4</dim>
				</port>
			</input>
			<output>
				<port id="1" precision="I64">
					<dim>1</dim>
				</port>
			</output>
		</layer>
		<layer id="354" name="Constant_853" type="Const" version="opset1">
			<data element_type="i64" shape="1" offset="904" size="8" />
			<rt_info>
				<attribute name="precise" version="0" />
			</rt_info>
			<output>
				<port id="0" precision="I64">
					<dim>1</dim>
				</port>
			</output>
		</layer>
		<layer id="355" name="Subtract_854" type="Subtract" version="opset1">
			<data auto_broadcast="numpy" />
			<input>
				<port id="0" precision="I64">
					<dim>1</dim>
				</port>
				<port id="1" precision="I64">
					<dim>1</dim>
				</port>
			</input>
			<output>
				<port id="2" precision="I64">
					<dim>1</dim>
				</port>
			</output>
		</layer>
		<layer id="356" name="Broadcast_855" type="Broadcast" version="opset3">
			<data mode="numpy" />
			<input>
				<port id="0" precision="I64">
					<dim>1</dim>
				</port>
				<port id="1" precision="I64">
					<dim>1</dim>
				</port>
			</input>
			<output>
				<port id="2" precision="I64">
					<dim>2</dim>
				</port>
			</output>
		</layer>
		<layer id="357" name="Concat_859" type="Concat" version="opset1">
			<data axis="0" />
			<input>
				<port id="0" precision="I64">
					<dim>1</dim>
				</port>
				<port id="1" precision="I64">
					<dim>1</dim>
				</port>
				<port id="2" precision="I64">
					<dim>2</dim>
				</port>
			</input>
			<output>
				<port id="3" precision="I64">
					<dim>4</dim>
				</port>
			</output>
		</layer>
		<layer id="358" name="Reshape_860" type="Reshape" version="opset1">
			<data special_zero="false" />
			<input>
				<port id="0" precision="FP32">
					<dim>36</dim>
				</port>
				<port id="1" precision="I64">
					<dim>4</dim>
				</port>
			</input>
			<output>
				<port id="2" precision="FP32">
					<dim>1</dim>
					<dim>36</dim>
					<dim>1</dim>
					<dim>1</dim>
				</port>
			</output>
		</layer>
		<layer id="359" name="node_Conv_1980" type="Add" version="opset1">
			<data auto_broadcast="numpy" />
			<input>
				<port id="0" precision="FP32">
					<dim>-1</dim>
					<dim>36</dim>
					<dim>40</dim>
					<dim>40</dim>
				</port>
				<port id="1" precision="FP32">
					<dim>1</dim>
					<dim>36</dim>
					<dim>1</dim>
					<dim>1</dim>
				</port>
			</input>
			<output>
				<port id="2" precision="FP32" names="getitem_51">
					<dim>-1</dim>
					<dim>36</dim>
					<dim>40</dim>
					<dim>40</dim>
				</port>
			</output>
		</layer>
		<layer id="360" name="node_relu_8" type="ReLU" version="opset1">
			<input>
				<port id="0" precision="FP32">
					<dim>-1</dim>
					<dim>36</dim>
					<dim>40</dim>
					<dim>40</dim>
				</port>
			</input>
			<output>
				<port id="1" precision="FP32" names="relu_8">
					<dim>-1</dim>
					<dim>36</dim>
					<dim>40</dim>
					<dim>40</dim>
				</port>
			</output>
		</layer>
		<layer id="361" name="node_cat_6" type="Concat" version="opset1">
			<data axis="1" />
			<input>
				<port id="0" precision="FP32">
					<dim>-1</dim>
					<dim>36</dim>
					<dim>40</dim>
					<dim>40</dim>
				</port>
				<port id="1" precision="FP32">
					<dim>-1</dim>
					<dim>36</dim>
					<dim>40</dim>
					<dim>40</dim>
				</port>
			</input>
			<output>
				<port id="2" precision="FP32" names="cat_6">
					<dim>-1</dim>
					<dim>72</dim>
					<dim>40</dim>
					<dim>40</dim>
				</port>
			</output>
		</layer>
		<layer id="362" name="blocks.3.0.conv_dw.weight_compressed" type="Const" version="opset1">
			<data element_type="f16" shape="72, 1, 5, 5" offset="13688" size="3600" />
			<output>
				<port id="0" precision="FP16" names="blocks.3.0.conv_dw.weight">
					<dim>72</dim>
					<dim>1</dim>
					<dim>5</dim>
					<dim>5</dim>
				</port>
			</output>
		</layer>
		<layer id="363" name="blocks.3.0.conv_dw.weight" type="Convert" version="opset1">
			<data destination_type="f32" />
			<rt_info>
				<attribute name="decompression" version="0" />
			</rt_info>
			<input>
				<port id="0" precision="FP16">
					<dim>72</dim>
					<dim>1</dim>
					<dim>5</dim>
					<dim>5</dim>
				</port>
			</input>
			<output>
				<port id="1" precision="FP32">
					<dim>72</dim>
					<dim>1</dim>
					<dim>5</dim>
					<dim>5</dim>
				</port>
			</output>
		</layer>
		<layer id="364" name="Constant_866" type="Const" version="opset1">
			<data element_type="i64" shape="1" offset="17288" size="8" />
			<rt_info>
				<attribute name="precise" version="0" />
			</rt_info>
			<output>
				<port id="0" precision="I64">
					<dim>1</dim>
				</port>
			</output>
		</layer>
		<layer id="365" name="ShapeOf_867" type="ShapeOf" version="opset3">
			<data output_type="i64" />
			<input>
				<port id="0" precision="FP32">
					<dim>72</dim>
					<dim>1</dim>
					<dim>5</dim>
					<dim>5</dim>
				</port>
			</input>
			<output>
				<port id="1" precision="I64">
					<dim>4</dim>
				</port>
			</output>
		</layer>
		<layer id="366" name="Constant_864" type="Const" version="opset1">
			<data element_type="i64" shape="" offset="1336" size="8" />
			<rt_info>
				<attribute name="precise" version="0" />
			</rt_info>
			<output>
				<port id="0" precision="I64" />
			</output>
		</layer>
		<layer id="367" name="Constant_865" type="Const" version="opset1">
			<data element_type="i64" shape="2" offset="1344" size="16" />
			<rt_info>
				<attribute name="precise" version="0" />
			</rt_info>
			<output>
				<port id="0" precision="I64">
					<dim>2</dim>
				</port>
			</output>
		</layer>
		<layer id="368" name="VariadicSplit_868" type="VariadicSplit" version="opset1">
			<input>
				<port id="0" precision="I64">
					<dim>4</dim>
				</port>
				<port id="1" precision="I64" />
				<port id="2" precision="I64">
					<dim>2</dim>
				</port>
			</input>
			<output>
				<port id="3" precision="I64">
					<dim>1</dim>
				</port>
				<port id="4" precision="I64">
					<dim>3</dim>
				</port>
			</output>
		</layer>
		<layer id="369" name="Divide_869" type="Divide" version="opset1">
			<data auto_broadcast="numpy" m_pythondiv="true" />
			<input>
				<port id="0" precision="I64">
					<dim>1</dim>
				</port>
				<port id="1" precision="I64">
					<dim>1</dim>
				</port>
			</input>
			<output>
				<port id="2" precision="I64">
					<dim>1</dim>
				</port>
			</output>
		</layer>
		<layer id="370" name="Concat_870" type="Concat" version="opset1">
			<data axis="0" />
			<input>
				<port id="0" precision="I64">
					<dim>1</dim>
				</port>
				<port id="1" precision="I64">
					<dim>1</dim>
				</port>
				<port id="2" precision="I64">
					<dim>3</dim>
				</port>
			</input>
			<output>
				<port id="3" precision="I64">
					<dim>5</dim>
				</port>
			</output>
		</layer>
		<layer id="371" name="Reshape_871" type="Reshape" version="opset1">
			<data special_zero="false" />
			<input>
				<port id="0" precision="FP32">
					<dim>72</dim>
					<dim>1</dim>
					<dim>5</dim>
					<dim>5</dim>
				</port>
				<port id="1" precision="I64">
					<dim>5</dim>
				</port>
			</input>
			<output>
				<port id="2" precision="FP32">
					<dim>72</dim>
					<dim>1</dim>
					<dim>1</dim>
					<dim>5</dim>
					<dim>5</dim>
				</port>
			</output>
		</layer>
		<layer id="372" name="node_Conv_1983/WithoutBiases" type="GroupConvolution" version="opset1">
			<data strides="2, 2" pads_begin="2, 2" pads_end="2, 2" dilations="1, 1" auto_pad="explicit" />
			<input>
				<port id="0" precision="FP32">
					<dim>-1</dim>
					<dim>72</dim>
					<dim>40</dim>
					<dim>40</dim>
				</port>
				<port id="1" precision="FP32">
					<dim>72</dim>
					<dim>1</dim>
					<dim>1</dim>
					<dim>5</dim>
					<dim>5</dim>
				</port>
			</input>
			<output>
				<port id="2" precision="FP32">
					<dim>-1</dim>
					<dim>72</dim>
					<dim>20</dim>
					<dim>20</dim>
				</port>
			</output>
		</layer>
		<layer id="373" name="blocks.3.0.conv_dw.weight_bias_compressed" type="Const" version="opset1">
			<data element_type="f16" shape="72" offset="17296" size="144" />
			<output>
				<port id="0" precision="FP16" names="blocks.3.0.conv_dw.weight_bias">
					<dim>72</dim>
				</port>
			</output>
		</layer>
		<layer id="374" name="blocks.3.0.conv_dw.weight_bias" type="Convert" version="opset1">
			<data destination_type="f32" />
			<rt_info>
				<attribute name="decompression" version="0" />
			</rt_info>
			<input>
				<port id="0" precision="FP16">
					<dim>72</dim>
				</port>
			</input>
			<output>
				<port id="1" precision="FP32">
					<dim>72</dim>
				</port>
			</output>
		</layer>
		<layer id="375" name="Constant_913" type="Const" version="opset1">
			<data element_type="i64" shape="1" offset="896" size="8" />
			<rt_info>
				<attribute name="precise" version="0" />
			</rt_info>
			<output>
				<port id="0" precision="I64">
					<dim>1</dim>
				</port>
			</output>
		</layer>
		<layer id="376" name="ShapeOf_919" type="ShapeOf" version="opset3">
			<data output_type="i64" />
			<input>
				<port id="0" precision="FP32">
					<dim>72</dim>
				</port>
			</input>
			<output>
				<port id="1" precision="I64">
					<dim>1</dim>
				</port>
			</output>
		</layer>
		<layer id="377" name="ShapeOf_911" type="ShapeOf" version="opset3">
			<data output_type="i64" />
			<input>
				<port id="0" precision="FP32">
					<dim>-1</dim>
					<dim>72</dim>
					<dim>20</dim>
					<dim>20</dim>
				</port>
			</input>
			<output>
				<port id="1" precision="I64">
					<dim>4</dim>
				</port>
			</output>
		</layer>
		<layer id="378" name="ShapeOf_912" type="ShapeOf" version="opset3">
			<data output_type="i64" />
			<input>
				<port id="0" precision="I64">
					<dim>4</dim>
				</port>
			</input>
			<output>
				<port id="1" precision="I64">
					<dim>1</dim>
				</port>
			</output>
		</layer>
		<layer id="379" name="Constant_914" type="Const" version="opset1">
			<data element_type="i64" shape="1" offset="904" size="8" />
			<rt_info>
				<attribute name="precise" version="0" />
			</rt_info>
			<output>
				<port id="0" precision="I64">
					<dim>1</dim>
				</port>
			</output>
		</layer>
		<layer id="380" name="Subtract_915" type="Subtract" version="opset1">
			<data auto_broadcast="numpy" />
			<input>
				<port id="0" precision="I64">
					<dim>1</dim>
				</port>
				<port id="1" precision="I64">
					<dim>1</dim>
				</port>
			</input>
			<output>
				<port id="2" precision="I64">
					<dim>1</dim>
				</port>
			</output>
		</layer>
		<layer id="381" name="Broadcast_916" type="Broadcast" version="opset3">
			<data mode="numpy" />
			<input>
				<port id="0" precision="I64">
					<dim>1</dim>
				</port>
				<port id="1" precision="I64">
					<dim>1</dim>
				</port>
			</input>
			<output>
				<port id="2" precision="I64">
					<dim>2</dim>
				</port>
			</output>
		</layer>
		<layer id="382" name="Concat_920" type="Concat" version="opset1">
			<data axis="0" />
			<input>
				<port id="0" precision="I64">
					<dim>1</dim>
				</port>
				<port id="1" precision="I64">
					<dim>1</dim>
				</port>
				<port id="2" precision="I64">
					<dim>2</dim>
				</port>
			</input>
			<output>
				<port id="3" precision="I64">
					<dim>4</dim>
				</port>
			</output>
		</layer>
		<layer id="383" name="Reshape_921" type="Reshape" version="opset1">
			<data special_zero="false" />
			<input>
				<port id="0" precision="FP32">
					<dim>72</dim>
				</port>
				<port id="1" precision="I64">
					<dim>4</dim>
				</port>
			</input>
			<output>
				<port id="2" precision="FP32">
					<dim>1</dim>
					<dim>72</dim>
					<dim>1</dim>
					<dim>1</dim>
				</port>
			</output>
		</layer>
		<layer id="384" name="node_Conv_1983" type="Add" version="opset1">
			<data auto_broadcast="numpy" />
			<input>
				<port id="0" precision="FP32">
					<dim>-1</dim>
					<dim>72</dim>
					<dim>20</dim>
					<dim>20</dim>
				</port>
				<port id="1" precision="FP32">
					<dim>1</dim>
					<dim>72</dim>
					<dim>1</dim>
					<dim>1</dim>
				</port>
			</input>
			<output>
				<port id="2" precision="FP32" names="getitem_54">
					<dim>-1</dim>
					<dim>72</dim>
					<dim>20</dim>
					<dim>20</dim>
				</port>
			</output>
		</layer>
		<layer id="385" name="val_345" type="Const" version="opset1">
			<data element_type="i64" shape="2" offset="17440" size="16" />
			<output>
				<port id="0" precision="I64" names="val_345">
					<dim>2</dim>
				</port>
			</output>
		</layer>
		<layer id="386" name="node_mean" type="ReduceMean" version="opset1">
			<data keep_dims="true" />
			<input>
				<port id="0" precision="FP32">
					<dim>-1</dim>
					<dim>72</dim>
					<dim>20</dim>
					<dim>20</dim>
				</port>
				<port id="1" precision="I64">
					<dim>2</dim>
				</port>
			</input>
			<output>
…
		<edge from-layer="1336" from-port="0" to-layer="1342" to-port="0" />
		<edge from-layer="1337" from-port="1" to-layer="1343" to-port="1" />
		<edge from-layer="1338" from-port="1" to-layer="1339" to-port="0" />
		<edge from-layer="1339" from-port="1" to-layer="1341" to-port="0" />
		<edge from-layer="1340" from-port="0" to-layer="1341" to-port="1" />
		<edge from-layer="1341" from-port="2" to-layer="1342" to-port="1" />
		<edge from-layer="1342" from-port="2" to-layer="1343" to-port="2" />
		<edge from-layer="1343" from-port="3" to-layer="1344" to-port="1" />
		<edge from-layer="1344" from-port="2" to-layer="1345" to-port="1" />
		<edge from-layer="1345" from-port="2" to-layer="1383" to-port="0" />
		<edge from-layer="1345" from-port="2" to-layer="1346" to-port="0" />
		<edge from-layer="1346" from-port="2" to-layer="1349" to-port="0" />
		<edge from-layer="1347" from-port="0" to-layer="1348" to-port="0" />
		<edge from-layer="1348" from-port="1" to-layer="1349" to-port="1" />
		<edge from-layer="1349" from-port="2" to-layer="1354" to-port="0" />
		<edge from-layer="1349" from-port="2" to-layer="1361" to-port="0" />
		<edge from-layer="1350" from-port="0" to-layer="1351" to-port="0" />
		<edge from-layer="1351" from-port="1" to-layer="1353" to-port="0" />
		<edge from-layer="1351" from-port="1" to-layer="1360" to-port="0" />
		<edge from-layer="1352" from-port="0" to-layer="1358" to-port="0" />
		<edge from-layer="1352" from-port="0" to-layer="1359" to-port="0" />
		<edge from-layer="1353" from-port="1" to-layer="1359" to-port="1" />
		<edge from-layer="1354" from-port="1" to-layer="1355" to-port="0" />
		<edge from-layer="1355" from-port="1" to-layer="1357" to-port="0" />
		<edge from-layer="1356" from-port="0" to-layer="1357" to-port="1" />
		<edge from-layer="1357" from-port="2" to-layer="1358" to-port="1" />
		<edge from-layer="1358" from-port="2" to-layer="1359" to-port="2" />
		<edge from-layer="1359" from-port="3" to-layer="1360" to-port="1" />
		<edge from-layer="1360" from-port="2" to-layer="1361" to-port="1" />
		<edge from-layer="1361" from-port="2" to-layer="1362" to-port="0" />
		<edge from-layer="1362" from-port="1" to-layer="1365" to-port="0" />
		<edge from-layer="1363" from-port="0" to-layer="1364" to-port="0" />
		<edge from-layer="1364" from-port="1" to-layer="1365" to-port="1" />
		<edge from-layer="1365" from-port="2" to-layer="1370" to-port="0" />
		<edge from-layer="1365" from-port="2" to-layer="1377" to-port="0" />
		<edge from-layer="1366" from-port="0" to-layer="1367" to-port="0" />
		<edge from-layer="1367" from-port="1" to-layer="1376" to-port="0" />
		<edge from-layer="1367" from-port="1" to-layer="1369" to-port="0" />
		<edge from-layer="1368" from-port="0" to-layer="1375" to-port="0" />
		<edge from-layer="1368" from-port="0" to-layer="1374" to-port="0" />
		<edge from-layer="1369" from-port="1" to-layer="1375" to-port="1" />
		<edge from-layer="1370" from-port="1" to-layer="1371" to-port="0" />
		<edge from-layer="1371" from-port="1" to-layer="1373" to-port="0" />
		<edge from-layer="1372" from-port="0" to-layer="1373" to-port="1" />
		<edge from-layer="1373" from-port="2" to-layer="1374" to-port="1" />
		<edge from-layer="1374" from-port="2" to-layer="1375" to-port="2" />
		<edge from-layer="1375" from-port="3" to-layer="1376" to-port="1" />
		<edge from-layer="1376" from-port="2" to-layer="1377" to-port="1" />
		<edge from-layer="1377" from-port="2" to-layer="1382" to-port="0" />
		<edge from-layer="1378" from-port="0" to-layer="1379" to-port="0" />
		<edge from-layer="1379" from-port="1" to-layer="1382" to-port="1" />
		<edge from-layer="1380" from-port="0" to-layer="1381" to-port="0" />
		<edge from-layer="1381" from-port="1" to-layer="1382" to-port="2" />
		<edge from-layer="1382" from-port="3" to-layer="1383" to-port="1" />
		<edge from-layer="1383" from-port="2" to-layer="1386" to-port="0" />
		<edge from-layer="1384" from-port="0" to-layer="1385" to-port="0" />
		<edge from-layer="1385" from-port="1" to-layer="1386" to-port="1" />
		<edge from-layer="1386" from-port="2" to-layer="1391" to-port="0" />
		<edge from-layer="1386" from-port="2" to-layer="1398" to-port="0" />
		<edge from-layer="1387" from-port="0" to-layer="1388" to-port="0" />
		<edge from-layer="1388" from-port="1" to-layer="1390" to-port="0" />
		<edge from-layer="1388" from-port="1" to-layer="1397" to-port="0" />
		<edge from-layer="1389" from-port="0" to-layer="1396" to-port="0" />
		<edge from-layer="1389" from-port="0" to-layer="1395" to-port="0" />
		<edge from-layer="1390" from-port="1" to-layer="1396" to-port="1" />
		<edge from-layer="1391" from-port="1" to-layer="1392" to-port="0" />
		<edge from-layer="1392" from-port="1" to-layer="1394" to-port="0" />
		<edge from-layer="1393" from-port="0" to-layer="1394" to-port="1" />
		<edge from-layer="1394" from-port="2" to-layer="1395" to-port="1" />
		<edge from-layer="1395" from-port="2" to-layer="1396" to-port="2" />
		<edge from-layer="1396" from-port="3" to-layer="1397" to-port="1" />
		<edge from-layer="1397" from-port="2" to-layer="1398" to-port="1" />
		<edge from-layer="1398" from-port="2" to-layer="1422" to-port="0" />
		<edge from-layer="1398" from-port="2" to-layer="1409" to-port="0" />
		<edge from-layer="1399" from-port="0" to-layer="1400" to-port="0" />
		<edge from-layer="1400" from-port="1" to-layer="1402" to-port="0" />
		<edge from-layer="1400" from-port="1" to-layer="1408" to-port="0" />
		<edge from-layer="1401" from-port="0" to-layer="1406" to-port="1" />
		<edge from-layer="1401" from-port="0" to-layer="1407" to-port="0" />
		<edge from-layer="1402" from-port="1" to-layer="1405" to-port="0" />
		<edge from-layer="1403" from-port="0" to-layer="1405" to-port="1" />
		<edge from-layer="1404" from-port="0" to-layer="1405" to-port="2" />
		<edge from-layer="1405" from-port="4" to-layer="1407" to-port="2" />
		<edge from-layer="1405" from-port="3" to-layer="1406" to-port="0" />
		<edge from-layer="1406" from-port="2" to-layer="1407" to-port="1" />
		<edge from-layer="1407" from-port="3" to-layer="1408" to-port="1" />
		<edge from-layer="1408" from-port="2" to-layer="1409" to-port="1" />
		<edge from-layer="1409" from-port="2" to-layer="1421" to-port="0" />
		<edge from-layer="1409" from-port="2" to-layer="1414" to-port="0" />
		<edge from-layer="1410" from-port="0" to-layer="1411" to-port="0" />
		<edge from-layer="1411" from-port="1" to-layer="1420" to-port="0" />
		<edge from-layer="1411" from-port="1" to-layer="1413" to-port="0" />
		<edge from-layer="1412" from-port="0" to-layer="1418" to-port="0" />
		<edge from-layer="1412" from-port="0" to-layer="1419" to-port="0" />
		<edge from-layer="1413" from-port="1" to-layer="1419" to-port="1" />
		<edge from-layer="1414" from-port="1" to-layer="1415" to-port="0" />
		<edge from-layer="1415" from-port="1" to-layer="1417" to-port="0" />
		<edge from-layer="1416" from-port="0" to-layer="1417" to-port="1" />
		<edge from-layer="1417" from-port="2" to-layer="1418" to-port="1" />
		<edge from-layer="1418" from-port="2" to-layer="1419" to-port="2" />
		<edge from-layer="1419" from-port="3" to-layer="1420" to-port="1" />
		<edge from-layer="1420" from-port="2" to-layer="1421" to-port="1" />
		<edge from-layer="1421" from-port="2" to-layer="1422" to-port="1" />
		<edge from-layer="1422" from-port="2" to-layer="1461" to-port="0" />
		<edge from-layer="1423" from-port="0" to-layer="1424" to-port="0" />
		<edge from-layer="1424" from-port="1" to-layer="1426" to-port="0" />
		<edge from-layer="1424" from-port="1" to-layer="1432" to-port="0" />
		<edge from-layer="1425" from-port="0" to-layer="1430" to-port="1" />
		<edge from-layer="1425" from-port="0" to-layer="1431" to-port="0" />
		<edge from-layer="1426" from-port="1" to-layer="1429" to-port="0" />
		<edge from-layer="1427" from-port="0" to-layer="1429" to-port="1" />
		<edge from-layer="1428" from-port="0" to-layer="1429" to-port="2" />
		<edge from-layer="1429" from-port="3" to-layer="1430" to-port="0" />
		<edge from-layer="1429" from-port="4" to-layer="1431" to-port="2" />
		<edge from-layer="1430" from-port="2" to-layer="1431" to-port="1" />
		<edge from-layer="1431" from-port="3" to-layer="1432" to-port="1" />
		<edge from-layer="1432" from-port="2" to-layer="1433" to-port="1" />
		<edge from-layer="1433" from-port="2" to-layer="1438" to-port="0" />
		<edge from-layer="1433" from-port="2" to-layer="1445" to-port="0" />
		<edge from-layer="1434" from-port="0" to-layer="1435" to-port="0" />
		<edge from-layer="1435" from-port="1" to-layer="1444" to-port="0" />
		<edge from-layer="1435" from-port="1" to-layer="1437" to-port="0" />
		<edge from-layer="1436" from-port="0" to-layer="1443" to-port="0" />
		<edge from-layer="1436" from-port="0" to-layer="1442" to-port="0" />
		<edge from-layer="1437" from-port="1" to-layer="1443" to-port="1" />
		<edge from-layer="1438" from-port="1" to-layer="1439" to-port="0" />
		<edge from-layer="1439" from-port="1" to-layer="1441" to-port="0" />
		<edge from-layer="1440" from-port="0" to-layer="1441" to-port="1" />
		<edge from-layer="1441" from-port="2" to-layer="1442" to-port="1" />
		<edge from-layer="1442" from-port="2" to-layer="1443" to-port="2" />
		<edge from-layer="1443" from-port="3" to-layer="1444" to-port="1" />
		<edge from-layer="1444" from-port="2" to-layer="1445" to-port="1" />
		<edge from-layer="1445" from-port="2" to-layer="1448" to-port="0" />
		<edge from-layer="1446" from-port="0" to-layer="1447" to-port="0" />
		<edge from-layer="1447" from-port="1" to-layer="1448" to-port="1" />
		<edge from-layer="1448" from-port="2" to-layer="1453" to-port="0" />
		<edge from-layer="1448" from-port="2" to-layer="1460" to-port="0" />
		<edge from-layer="1449" from-port="0" to-layer="1450" to-port="0" />
		<edge from-layer="1450" from-port="1" to-layer="1452" to-port="0" />
		<edge from-layer="1450" from-port="1" to-layer="1459" to-port="0" />
		<edge from-layer="1451" from-port="0" to-layer="1457" to-port="0" />
		<edge from-layer="1451" from-port="0" to-layer="1458" to-port="0" />
		<edge from-layer="1452" from-port="1" to-layer="1458" to-port="1" />
		<edge from-layer="1453" from-port="1" to-layer="1454" to-port="0" />
		<edge from-layer="1454" from-port="1" to-layer="1456" to-port="0" />
		<edge from-layer="1455" from-port="0" to-layer="1456" to-port="1" />
		<edge from-layer="1456" from-port="2" to-layer="1457" to-port="1" />
		<edge from-layer="1457" from-port="2" to-layer="1458" to-port="2" />
		<edge from-layer="1458" from-port="3" to-layer="1459" to-port="1" />
		<edge from-layer="1459" from-port="2" to-layer="1460" to-port="1" />
		<edge from-layer="1460" from-port="2" to-layer="1461" to-port="1" />
		<edge from-layer="1461" from-port="2" to-layer="1542" to-port="1" />
		<edge from-layer="1461" from-port="2" to-layer="1464" to-port="0" />
		<edge from-layer="1462" from-port="0" to-layer="1463" to-port="0" />
		<edge from-layer="1463" from-port="1" to-layer="1464" to-port="1" />
		<edge from-layer="1464" from-port="2" to-layer="1469" to-port="0" />
		<edge from-layer="1464" from-port="2" to-layer="1476" to-port="0" />
		<edge from-layer="1465" from-port="0" to-layer="1466" to-port="0" />
		<edge from-layer="1466" from-port="1" to-layer="1475" to-port="0" />
		<edge from-layer="1466" from-port="1" to-layer="1468" to-port="0" />
		<edge from-layer="1467" from-port="0" to-layer="1474" to-port="0" />
		<edge from-layer="1467" from-port="0" to-layer="1473" to-port="0" />
		<edge from-layer="1468" from-port="1" to-layer="1474" to-port="1" />
		<edge from-layer="1469" from-port="1" to-layer="1470" to-port="0" />
		<edge from-layer="1470" from-port="1" to-layer="1472" to-port="0" />
		<edge from-layer="1471" from-port="0" to-layer="1472" to-port="1" />
		<edge from-layer="1472" from-port="2" to-layer="1473" to-port="1" />
		<edge from-layer="1473" from-port="2" to-layer="1474" to-port="2" />
		<edge from-layer="1474" from-port="3" to-layer="1475" to-port="1" />
		<edge from-layer="1475" from-port="2" to-layer="1476" to-port="1" />
		<edge from-layer="1476" from-port="2" to-layer="1477" to-port="0" />
		<edge from-layer="1477" from-port="1" to-layer="1502" to-port="0" />
		<edge from-layer="1477" from-port="1" to-layer="1488" to-port="0" />
		<edge from-layer="1478" from-port="0" to-layer="1479" to-port="0" />
		<edge from-layer="1479" from-port="1" to-layer="1487" to-port="0" />
		<edge from-layer="1479" from-port="1" to-layer="1481" to-port="0" />
		<edge from-layer="1480" from-port="0" to-layer="1485" to-port="1" />
		<edge from-layer="1480" from-port="0" to-layer="1486" to-port="0" />
		<edge from-layer="1481" from-port="1" to-layer="1484" to-port="0" />
		<edge from-layer="1482" from-port="0" to-layer="1484" to-port="1" />
		<edge from-layer="1483" from-port="0" to-layer="1484" to-port="2" />
		<edge from-layer="1484" from-port="4" to-layer="1486" to-port="2" />
		<edge from-layer="1484" from-port="3" to-layer="1485" to-port="0" />
		<edge from-layer="1485" from-port="2" to-layer="1486" to-port="1" />
		<edge from-layer="1486" from-port="3" to-layer="1487" to-port="1" />
		<edge from-layer="1487" from-port="2" to-layer="1488" to-port="1" />
		<edge from-layer="1488" from-port="2" to-layer="1493" to-port="0" />
		<edge from-layer="1488" from-port="2" to-layer="1500" to-port="0" />
		<edge from-layer="1489" from-port="0" to-layer="1490" to-port="0" />
		<edge from-layer="1490" from-port="1" to-layer="1499" to-port="0" />
		<edge from-layer="1490" from-port="1" to-layer="1492" to-port="0" />
		<edge from-layer="1491" from-port="0" to-layer="1498" to-port="0" />
		<edge from-layer="1491" from-port="0" to-layer="1497" to-port="0" />
		<edge from-layer="1492" from-port="1" to-layer="1498" to-port="1" />
		<edge from-layer="1493" from-port="1" to-layer="1494" to-port="0" />
		<edge from-layer="1494" from-port="1" to-layer="1496" to-port="0" />
		<edge from-layer="1495" from-port="0" to-layer="1496" to-port="1" />
		<edge from-layer="1496" from-port="2" to-layer="1497" to-port="1" />
		<edge from-layer="1497" from-port="2" to-layer="1498" to-port="2" />
		<edge from-layer="1498" from-port="3" to-layer="1499" to-port="1" />
		<edge from-layer="1499" from-port="2" to-layer="1500" to-port="1" />
		<edge from-layer="1500" from-port="2" to-layer="1501" to-port="0" />
		<edge from-layer="1501" from-port="1" to-layer="1502" to-port="1" />
		<edge from-layer="1502" from-port="2" to-layer="1505" to-port="0" />
		<edge from-layer="1503" from-port="0" to-layer="1504" to-port="0" />
		<edge from-layer="1504" from-port="1" to-layer="1505" to-port="1" />
		<edge from-layer="1505" from-port="2" to-layer="1510" to-port="0" />
		<edge from-layer="1505" from-port="2" to-layer="1517" to-port="0" />
		<edge from-layer="1506" from-port="0" to-layer="1507" to-port="0" />
		<edge from-layer="1507" from-port="1" to-layer="1509" to-port="0" />
		<edge from-layer="1507" from-port="1" to-layer="1516" to-port="0" />
		<edge from-layer="1508" from-port="0" to-layer="1514" to-port="0" />
		<edge from-layer="1508" from-port="0" to-layer="1515" to-port="0" />
		<edge from-layer="1509" from-port="1" to-layer="1515" to-port="1" />
		<edge from-layer="1510" from-port="1" to-layer="1511" to-port="0" />
		<edge from-layer="1511" from-port="1" to-layer="1513" to-port="0" />
		<edge from-layer="1512" from-port="0" to-layer="1513" to-port="1" />
		<edge from-layer="1513" from-port="2" to-layer="1514" to-port="1" />
		<edge from-layer="1514" from-port="2" to-layer="1515" to-port="2" />
		<edge from-layer="1515" from-port="3" to-layer="1516" to-port="1" />
		<edge from-layer="1516" from-port="2" to-layer="1517" to-port="1" />
		<edge from-layer="1517" from-port="2" to-layer="1541" to-port="0" />
		<edge from-layer="1517" from-port="2" to-layer="1528" to-port="0" />
		<edge from-layer="1518" from-port="0" to-layer="1519" to-port="0" />
		<edge from-layer="1519" from-port="1" to-layer="1527" to-port="0" />
		<edge from-layer="1519" from-port="1" to-layer="1521" to-port="0" />
		<edge from-layer="1520" from-port="0" to-layer="1525" to-port="1" />
		<edge from-layer="1520" from-port="0" to-layer="1526" to-port="0" />
		<edge from-layer="1521" from-port="1" to-layer="1524" to-port="0" />
		<edge from-layer="1522" from-port="0" to-layer="1524" to-port="1" />
		<edge from-layer="1523" from-port="0" to-layer="1524" to-port="2" />
		<edge from-layer="1524" from-port="3" to-layer="1525" to-port="0" />
		<edge from-layer="1524" from-port="4" to-layer="1526" to-port="2" />
		<edge from-layer="1525" from-port="2" to-layer="1526" to-port="1" />
		<edge from-layer="1526" from-port="3" to-layer="1527" to-port="1" />
		<edge from-layer="1527" from-port="2" to-layer="1528" to-port="1" />
		<edge from-layer="1528" from-port="2" to-layer="1533" to-port="0" />
		<edge from-layer="1528" from-port="2" to-layer="1540" to-port="0" />
		<edge from-layer="1529" from-port="0" to-layer="1530" to-port="0" />
		<edge from-layer="1530" from-port="1" to-layer="1532" to-port="0" />
		<edge from-layer="1530" from-port="1" to-layer="1539" to-port="0" />
		<edge from-layer="1531" from-port="0" to-layer="1537" to-port="0" />
		<edge from-layer="1531" from-port="0" to-layer="1538" to-port="0" />
		<edge from-layer="1532" from-port="1" to-layer="1538" to-port="1" />
		<edge from-layer="1533" from-port="1" to-layer="1534" to-port="0" />
		<edge from-layer="1534" from-port="1" to-layer="1536" to-port="0" />
		<edge from-layer="1535" from-port="0" to-layer="1536" to-port="1" />
		<edge from-layer="1536" from-port="2" to-layer="1537" to-port="1" />
		<edge from-layer="1537" from-port="2" to-layer="1538" to-port="2" />
		<edge from-layer="1538" from-port="3" to-layer="1539" to-port="1" />
		<edge from-layer="1539" from-port="2" to-layer="1540" to-port="1" />
		<edge from-layer="1540" from-port="2" to-layer="1541" to-port="1" />
		<edge from-layer="1541" from-port="2" to-layer="1542" to-port="0" />
		<edge from-layer="1542" from-port="2" to-layer="1545" to-port="0" />
		<edge from-layer="1542" from-port="2" to-layer="1661" to-port="1" />
		<edge from-layer="1543" from-port="0" to-layer="1544" to-port="0" />
		<edge from-layer="1544" from-port="1" to-layer="1545" to-port="1" />
		<edge from-layer="1545" from-port="2" to-layer="1557" to-port="0" />
		<edge from-layer="1545" from-port="2" to-layer="1550" to-port="0" />
		<edge from-layer="1546" from-port="0" to-layer="1547" to-port="0" />
		<edge from-layer="1547" from-port="1" to-layer="1549" to-port="0" />
		<edge from-layer="1547" from-port="1" to-layer="1556" to-port="0" />
		<edge from-layer="1548" from-port="0" to-layer="1554" to-port="0" />
		<edge from-layer="1548" from-port="0" to-layer="1555" to-port="0" />
		<edge from-layer="1549" from-port="1" to-layer="1555" to-port="1" />
		<edge from-layer="1550" from-port="1" to-layer="1551" to-port="0" />
		<edge from-layer="1551" from-port="1" to-layer="1553" to-port="0" />
		<edge from-layer="1552" from-port="0" to-layer="1553" to-port="1" />
		<edge from-layer="1553" from-port="2" to-layer="1554" to-port="1" />
		<edge from-layer="1554" from-port="2" to-layer="1555" to-port="2" />
		<edge from-layer="1555" from-port="3" to-layer="1556" to-port="1" />
		<edge from-layer="1556" from-port="2" to-layer="1557" to-port="1" />
		<edge from-layer="1557" from-port="2" to-layer="1558" to-port="0" />
		<edge from-layer="1558" from-port="1" to-layer="1583" to-port="0" />
		<edge from-layer="1558" from-port="1" to-layer="1569" to-port="0" />
		<edge from-layer="1559" from-port="0" to-layer="1560" to-port="0" />
		<edge from-layer="1560" from-port="1" to-layer="1562" to-port="0" />
		<edge from-layer="1560" from-port="1" to-layer="1568" to-port="0" />
		<edge from-layer="1561" from-port="0" to-layer="1566" to-port="1" />
		<edge from-layer="1561" from-port="0" to-layer="1567" to-port="0" />
		<edge from-layer="1562" from-port="1" to-layer="1565" to-port="0" />
		<edge from-layer="1563" from-port="0" to-layer="1565" to-port="1" />
		<edge from-layer="1564" from-port="0" to-layer="1565" to-port="2" />
		<edge from-layer="1565" from-port="4" to-layer="1567" to-port="2" />
		<edge from-layer="1565" from-port="3" to-layer="1566" to-port="0" />
		<edge from-layer="1566" from-port="2" to-layer="1567" to-port="1" />
		<edge from-layer="1567" from-port="3" to-layer="1568" to-port="1" />
		<edge from-layer="1568" from-port="2" to-layer="1569" to-port="1" />
		<edge from-layer="1569" from-port="2" to-layer="1574" to-port="0" />
		<edge from-layer="1569" from-port="2" to-layer="1581" to-port="0" />
		<edge from-layer="1570" from-port="0" to-layer="1571" to-port="0" />
		<edge from-layer="1571" from-port="1" to-layer="1580" to-port="0" />
		<edge from-layer="1571" from-port="1" to-layer="1573" to-port="0" />
		<edge from-layer="1572" from-port="0" to-layer="1578" to-port="0" />
		<edge from-layer="1572" from-port="0" to-layer="1579" to-port="0" />
		<edge from-layer="1573" from-port="1" to-layer="1579" to-port="1" />
		<edge from-layer="1574" from-port="1" to-layer="1575" to-port="0" />
		<edge from-layer="1575" from-port="1" to-layer="1577" to-port="0" />
		<edge from-layer="1576" from-port="0" to-layer="1577" to-port="1" />
		<edge from-layer="1577" from-port="2" to-layer="1578" to-port="1" />
		<edge from-layer="1578" from-port="2" to-layer="1579" to-port="2" />
		<edge from-layer="1579" from-port="3" to-layer="1580" to-port="1" />
		<edge from-layer="1580" from-port="2" to-layer="1581" to-port="1" />
		<edge from-layer="1581" from-port="2" to-layer="1582" to-port="0" />
		<edge from-layer="1582" from-port="1" to-layer="1583" to-port="1" />
		<edge from-layer="1583" from-port="2" to-layer="1621" to-port="0" />
		<edge from-layer="1583" from-port="2" to-layer="1584" to-port="0" />
		<edge from-layer="1584" from-port="2" to-layer="1587" to-port="0" />
		<edge from-layer="1585" from-port="0" to-layer="1586" to-port="0" />
		<edge from-layer="1586" from-port="1" to-layer="1587" to-port="1" />
		<edge from-layer="1587" from-port="2" to-layer="1592" to-port="0" />
		<edge from-layer="1587" from-port="2" to-layer="1599" to-port="0" />
		<edge from-layer="1588" from-port="0" to-layer="1589" to-port="0" />
		<edge from-layer="1589" from-port="1" to-layer="1598" to-port="0" />
		<edge from-layer="1589" from-port="1" to-layer="1591" to-port="0" />
		<edge from-layer="1590" from-port="0" to-layer="1596" to-port="0" />
		<edge from-layer="1590" from-port="0" to-layer="1597" to-port="0" />
		<edge from-layer="1591" from-port="1" to-layer="1597" to-port="1" />
		<edge from-layer="1592" from-port="1" to-layer="1593" to-port="0" />
		<edge from-layer="1593" from-port="1" to-layer="1595" to-port="0" />
		<edge from-layer="1594" from-port="0" to-layer="1595" to-port="1" />
		<edge from-layer="1595" from-port="2" to-layer="1596" to-port="1" />
		<edge from-layer="1596" from-port="2" to-layer="1597" to-port="2" />
		<edge from-layer="1597" from-port="3" to-layer="1598" to-port="1" />
		<edge from-layer="1598" from-port="2" to-layer="1599" to-port="1" />
		<edge from-layer="1599" from-port="2" to-layer="1600" to-port="0" />
		<edge from-layer="1600" from-port="1" to-layer="1603" to-port="0" />
		<edge from-layer="1601" from-port="0" to-layer="1602" to-port="0" />
		<edge from-layer="1602" from-port="1" to-layer="1603" to-port="1" />
		<edge from-layer="1603" from-port="2" to-layer="1608" to-port="0" />
		<edge from-layer="1603" from-port="2" to-layer="1615" to-port="0" />
		<edge from-layer="1604" from-port="0" to-layer="1605" to-port="0" />
		<edge from-layer="1605" from-port="1" to-layer="1614" to-port="0" />
		<edge from-layer="1605" from-port="1" to-layer="1607" to-port="0" />
		<edge from-layer="1606" from-port="0" to-layer="1612" to-port="0" />
		<edge from-layer="1606" from-port="0" to-layer="1613" to-port="0" />
		<edge from-layer="1607" from-port="1" to-layer="1613" to-port="1" />
		<edge from-layer="1608" from-port="1" to-layer="1609" to-port="0" />
		<edge from-layer="1609" from-port="1" to-layer="1611" to-port="0" />
		<edge from-layer="1610" from-port="0" to-layer="1611" to-port="1" />
		<edge from-layer="1611" from-port="2" to-layer="1612" to-port="1" />
		<edge from-layer="1612" from-port="2" to-layer="1613" to-port="2" />
		<edge from-layer="1613" from-port="3" to-layer="1614" to-port="1" />
		<edge from-layer="1614" from-port="2" to-layer="1615" to-port="1" />
		<edge from-layer="1615" from-port="2" to-layer="1620" to-port="0" />
		<edge from-layer="1616" from-port="0" to-layer="1617" to-port="0" />
		<edge from-layer="1617" from-port="1" to-layer="1620" to-port="1" />
		<edge from-layer="1618" from-port="0" to-layer="1619" to-port="0" />
		<edge from-layer="1619" from-port="1" to-layer="1620" to-port="2" />
		<edge from-layer="1620" from-port="3" to-layer="1621" to-port="1" />
		<edge from-layer="1621" from-port="2" to-layer="1624" to-port="0" />
		<edge from-layer="1622" from-port="0" to-layer="1623" to-port="0" />
		<edge from-layer="1623" from-port="1" to-layer="1624" to-port="1" />
		<edge from-layer="1624" from-port="2" to-layer="1629" to-port="0" />
		<edge from-layer="1624" from-port="2" to-layer="1636" to-port="0" />
		<edge from-layer="1625" from-port="0" to-layer="1626" to-port="0" />
		<edge from-layer="1626" from-port="1" to-layer="1628" to-port="0" />
		<edge from-layer="1626" from-port="1" to-layer="1635" to-port="0" />
		<edge from-layer="1627" from-port="0" to-layer="1634" to-port="0" />
		<edge from-layer="1627" from-port="0" to-layer="1633" to-port="0" />
		<edge from-layer="1628" from-port="1" to-layer="1634" to-port="1" />
		<edge from-layer="1629" from-port="1" to-layer="1630" to-port="0" />
		<edge from-layer="1630" from-port="1" to-layer="1632" to-port="0" />
		<edge from-layer="1631" from-port="0" to-layer="1632" to-port="1" />
		<edge from-layer="1632" from-port="2" to-layer="1633" to-port="1" />
		<edge from-layer="1633" from-port="2" to-layer="1634" to-port="2" />
		<edge from-layer="1634" from-port="3" to-layer="1635" to-port="1" />
		<edge from-layer="1635" from-port="2" to-layer="1636" to-port="1" />
		<edge from-layer="1636" from-port="2" to-layer="1660" to-port="0" />
		<edge from-layer="1636" from-port="2" to-layer="1647" to-port="0" />
		<edge from-layer="1637" from-port="0" to-layer="1638" to-port="0" />
		<edge from-layer="1638" from-port="1" to-layer="1646" to-port="0" />
		<edge from-layer="1638" from-port="1" to-layer="1640" to-port="0" />
		<edge from-layer="1639" from-port="0" to-layer="1644" to-port="1" />
		<edge from-layer="1639" from-port="0" to-layer="1645" to-port="0" />
		<edge from-layer="1640" from-port="1" to-layer="1643" to-port="0" />
		<edge from-layer="1641" from-port="0" to-layer="1643" to-port="1" />
		<edge from-layer="1642" from-port="0" to-layer="1643" to-port="2" />
		<edge from-layer="1643" from-port="3" to-layer="1644" to-port="0" />
		<edge from-layer="1643" from-port="4" to-layer="1645" to-port="2" />
		<edge from-layer="1644" from-port="2" to-layer="1645" to-port="1" />
		<edge from-layer="1645" from-port="3" to-layer="1646" to-port="1" />
		<edge from-layer="1646" from-port="2" to-layer="1647" to-port="1" />
		<edge from-layer="1647" from-port="2" to-layer="1652" to-port="0" />
		<edge from-layer="1647" from-port="2" to-layer="1659" to-port="0" />
		<edge from-layer="1648" from-port="0" to-layer="1649" to-port="0" />
		<edge from-layer="1649" from-port="1" to-layer="1658" to-port="0" />
		<edge from-layer="1649" from-port="1" to-layer="1651" to-port="0" />
		<edge from-layer="1650" from-port="0" to-layer="1656" to-port="0" />
		<edge from-layer="1650" from-port="0" to-layer="1657" to-port="0" />
		<edge from-layer="1651" from-port="1" to-layer="1657" to-port="1" />
		<edge from-layer="1652" from-port="1" to-layer="1653" to-port="0" />
		<edge from-layer="1653" from-port="1" to-layer="1655" to-port="0" />
		<edge from-layer="1654" from-port="0" to-layer="1655" to-port="1" />
		<edge from-layer="1655" from-port="2" to-layer="1656" to-port="1" />
		<edge from-layer="1656" from-port="2" to-layer="1657" to-port="2" />
		<edge from-layer="1657" from-port="3" to-layer="1658" to-port="1" />
		<edge from-layer="1658" from-port="2" to-layer="1659" to-port="1" />
		<edge from-layer="1659" from-port="2" to-layer="1660" to-port="1" />
		<edge from-layer="1660" from-port="2" to-layer="1661" to-port="0" />
		<edge from-layer="1661" from-port="2" to-layer="1742" to-port="1" />
		<edge from-layer="1661" from-port="2" to-layer="1664" to-port="0" />
		<edge from-layer="1662" from-port="0" to-layer="1663" to-port="0" />
		<edge from-layer="1663" from-port="1" to-layer="1664" to-port="1" />
		<edge from-layer="1664" from-port="2" to-layer="1669" to-port="0" />
		<edge from-layer="1664" from-port="2" to-layer="1676" to-port="0" />
		<edge from-layer="1665" from-port="0" to-layer="1666" to-port="0" />
		<edge from-layer="1666" from-port="1" to-layer="1668" to-port="0" />
		<edge from-layer="1666" from-port="1" to-layer="1675" to-port="0" />
		<edge from-layer="1667" from-port="0" to-layer="1673" to-port="0" />
		<edge from-layer="1667" from-port="0" to-layer="1674" to-port="0" />
		<edge from-layer="1668" from-port="1" to-layer="1674" to-port="1" />
		<edge from-layer="1669" from-port="1" to-layer="1670" to-port="0" />
		<edge from-layer="1670" from-port="1" to-layer="1672" to-port="0" />
		<edge from-layer="1671" from-port="0" to-layer="1672" to-port="1" />
		<edge from-layer="1672" from-port="2" to-layer="1673" to-port="1" />
		<edge from-layer="1673" from-port="2" to-layer="1674" to-port="2" />
		<edge from-layer="1674" from-port="3" to-layer="1675" to-port="1" />
		<edge from-layer="1675" from-port="2" to-layer="1676" to-port="1" />
		<edge from-layer="1676" from-port="2" to-layer="1677" to-port="0" />
		<edge from-layer="1677" from-port="1" to-layer="1702" to-port="0" />
		<edge from-layer="1677" from-port="1" to-layer="1688" to-port="0" />
		<edge from-layer="1678" from-port="0" to-layer="1679" to-port="0" />
		<edge from-layer="1679" from-port="1" to-layer="1687" to-port="0" />
		<edge from-layer="1679" from-port="1" to-layer="1681" to-port="0" />
		<edge from-layer="1680" from-port="0" to-layer="1685" to-port="1" />
		<edge from-layer="1680" from-port="0" to-layer="1686" to-port="0" />
		<edge from-layer="1681" from-port="1" to-layer="1684" to-port="0" />
		<edge from-layer="1682" from-port="0" to-layer="1684" to-port="1" />
		<edge from-layer="1683" from-port="0" to-layer="1684" to-port="2" />
		<edge from-layer="1684" from-port="4" to-layer="1686" to-port="2" />
		<edge from-layer="1684" from-port="3" to-layer="1685" to-port="0" />
		<edge from-layer="1685" from-port="2" to-layer="1686" to-port="1" />
		<edge from-layer="1686" from-port="3" to-layer="1687" to-port="1" />
		<edge from-layer="1687" from-port="2" to-layer="1688" to-port="1" />
		<edge from-layer="1688" from-port="2" to-layer="1693" to-port="0" />
		<edge from-layer="1688" from-port="2" to-layer="1700" to-port="0" />
		<edge from-layer="1689" from-port="0" to-layer="1690" to-port="0" />
		<edge from-layer="1690" from-port="1" to-layer="1699" to-port="0" />
		<edge from-layer="1690" from-port="1" to-layer="1692" to-port="0" />
		<edge from-layer="1691" from-port="0" to-layer="1698" to-port="0" />
		<edge from-layer="1691" from-port="0" to-layer="1697" to-port="0" />
		<edge from-layer="1692" from-port="1" to-layer="1698" to-port="1" />
		<edge from-layer="1693" from-port="1" to-layer="1694" to-port="0" />
		<edge from-layer="1694" from-port="1" to-layer="1696" to-port="0" />
		<edge from-layer="1695" from-port="0" to-layer="1696" to-port="1" />
		<edge from-layer="1696" from-port="2" to-layer="1697" to-port="1" />
		<edge from-layer="1697" from-port="2" to-layer="1698" to-port="2" />
		<edge from-layer="1698" from-port="3" to-layer="1699" to-port="1" />
		<edge from-layer="1699" from-port="2" to-layer="1700" to-port="1" />
		<edge from-layer="1700" from-port="2" to-layer="1701" to-port="0" />
		<edge from-layer="1701" from-port="1" to-layer="1702" to-port="1" />
		<edge from-layer="1702" from-port="2" to-layer="1705" to-port="0" />
		<edge from-layer="1703" from-port="0" to-layer="1704" to-port="0" />
		<edge from-layer="1704" from-port="1" to-layer="1705" to-port="1" />
		<edge from-layer="1705" from-port="2" to-layer="1717" to-port="0" />
		<edge from-layer="1705" from-port="2" to-layer="1710" to-port="0" />
		<edge from-layer="1706" from-port="0" to-layer="1707" to-port="0" />
		<edge from-layer="1707" from-port="1" to-layer="1716" to-port="0" />
		<edge from-layer="1707" from-port="1" to-layer="1709" to-port="0" />
		<edge from-layer="1708" from-port="0" to-layer="1714" to-port="0" />
		<edge from-layer="1708" from-port="0" to-layer="1715" to-port="0" />
		<edge from-layer="1709" from-port="1" to-layer="1715" to-port="1" />
		<edge from-layer="1710" from-port="1" to-layer="1711" to-port="0" />
		<edge from-layer="1711" from-port="1" to-layer="1713" to-port="0" />
		<edge from-layer="1712" from-port="0" to-layer="1713" to-port="1" />
		<edge from-layer="1713" from-port="2" to-layer="1714" to-port="1" />
		<edge from-layer="1714" from-port="2" to-layer="1715" to-port="2" />
		<edge from-layer="1715" from-port="3" to-layer="1716" to-port="1" />
		<edge from-layer="1716" from-port="2" to-layer="1717" to-port="1" />
		<edge from-layer="1717" from-port="2" to-layer="1741" to-port="0" />
		<edge from-layer="1717" from-port="2" to-layer="1728" to-port="0" />
		<edge from-layer="1718" from-port="0" to-layer="1719" to-port="0" />
		<edge from-layer="1719" from-port="1" to-layer="1721" to-port="0" />
		<edge from-layer="1719" from-port="1" to-layer="1727" to-port="0" />
		<edge from-layer="1720" from-port="0" to-layer="1725" to-port="1" />
		<edge from-layer="1720" from-port="0" to-layer="1726" to-port="0" />
		<edge from-layer="1721" from-port="1" to-layer="1724" to-port="0" />
		<edge from-layer="1722" from-port="0" to-layer="1724" to-port="1" />
		<edge from-layer="1723" from-port="0" to-layer="1724" to-port="2" />
		<edge from-layer="1724" from-port="3" to-layer="1725" to-port="0" />
		<edge from-layer="1724" from-port="4" to-layer="1726" to-port="2" />
		<edge from-layer="1725" from-port="2" to-layer="1726" to-port="1" />
		<edge from-layer="1726" from-port="3" to-layer="1727" to-port="1" />
		<edge from-layer="1727" from-port="2" to-layer="1728" to-port="1" />
		<edge from-layer="1728" from-port="2" to-layer="1733" to-port="0" />
		<edge from-layer="1728" from-port="2" to-layer="1740" to-port="0" />
		<edge from-layer="1729" from-port="0" to-layer="1730" to-port="0" />
		<edge from-layer="1730" from-port="1" to-layer="1739" to-port="0" />
		<edge from-layer="1730" from-port="1" to-layer="1732" to-port="0" />
		<edge from-layer="1731" from-port="0" to-layer="1737" to-port="0" />
		<edge from-layer="1731" from-port="0" to-layer="1738" to-port="0" />
		<edge from-layer="1732" from-port="1" to-layer="1738" to-port="1" />
		<edge from-layer="1733" from-port="1" to-layer="1734" to-port="0" />
		<edge from-layer="1734" from-port="1" to-layer="1736" to-port="0" />
		<edge from-layer="1735" from-port="0" to-layer="1736" to-port="1" />
		<edge from-layer="1736" from-port="2" to-layer="1737" to-port="1" />
		<edge from-layer="1737" from-port="2" to-layer="1738" to-port="2" />
		<edge from-layer="1738" from-port="3" to-layer="1739" to-port="1" />
		<edge from-layer="1739" from-port="2" to-layer="1740" to-port="1" />
		<edge from-layer="1740" from-port="2" to-layer="1741" to-port="1" />
		<edge from-layer="1741" from-port="2" to-layer="1742" to-port="0" />
		<edge from-layer="1742" from-port="2" to-layer="1745" to-port="0" />
		<edge from-layer="1742" from-port="2" to-layer="1861" to-port="1" />
		<edge from-layer="1743" from-port="0" to-layer="1744" to-port="0" />
		<edge from-layer="1744" from-port="1" to-layer="1745" to-port="1" />
		<edge from-layer="1745" from-port="2" to-layer="1757" to-port="0" />
		<edge from-layer="1745" from-port="2" to-layer="1750" to-port="0" />
		<edge from-layer="1746" from-port="0" to-layer="1747" to-port="0" />
		<edge from-layer="1747" from-port="1" to-layer="1749" to-port="0" />
		<edge from-layer="1747" from-port="1" to-layer="1756" to-port="0" />
		<edge from-layer="1748" from-port="0" to-layer="1754" to-port="0" />
		<edge from-layer="1748" from-port="0" to-layer="1755" to-port="0" />
		<edge from-layer="1749" from-port="1" to-layer="1755" to-port="1" />
		<edge from-layer="1750" from-port="1" to-layer="1751" to-port="0" />
		<edge from-layer="1751" from-port="1" to-layer="1753" to-port="0" />
		<edge from-layer="1752" from-port="0" to-layer="1753" to-port="1" />
		<edge from-layer="1753" from-port="2" to-layer="1754" to-port="1" />
		<edge from-layer="1754" from-port="2" to-layer="1755" to-port="2" />
		<edge from-layer="1755" from-port="3" to-layer="1756" to-port="1" />
		<edge from-layer="1756" from-port="2" to-layer="1757" to-port="1" />
		<edge from-layer="1757" from-port="2" to-layer="1758" to-port="0" />
		<edge from-layer="1758" from-port="1" to-layer="1783" to-port="0" />
		<edge from-layer="1758" from-port="1" to-layer="1769" to-port="0" />
		<edge from-layer="1759" from-port="0" to-layer="1760" to-port="0" />
		<edge from-layer="1760" from-port="1" to-layer="1768" to-port="0" />
		<edge from-layer="1760" from-port="1" to-layer="1762" to-port="0" />
		<edge from-layer="1761" from-port="0" to-layer="1766" to-port="1" />
		<edge from-layer="1761" from-port="0" to-layer="1767" to-port="0" />
		<edge from-layer="1762" from-port="1" to-layer="1765" to-port="0" />
		<edge from-layer="1763" from-port="0" to-layer="1765" to-port="1" />
		<edge from-layer="1764" from-port="0" to-layer="1765" to-port="2" />
		<edge from-layer="1765" from-port="3" to-layer="1766" to-port="0" />
		<edge from-layer="1765" from-port="4" to-layer="1767" to-port="2" />
		<edge from-layer="1766" from-port="2" to-layer="1767" to-port="1" />
		<edge from-layer="1767" from-port="3" to-layer="1768" to-port="1" />
		<edge from-layer="1768" from-port="2" to-layer="1769" to-port="1" />
		<edge from-layer="1769" from-port="2" to-layer="1774" to-port="0" />
		<edge from-layer="1769" from-port="2" to-layer="1781" to-port="0" />
		<edge from-layer="1770" from-port="0" to-layer="1771" to-port="0" />
		<edge from-layer="1771" from-port="1" to-layer="1773" to-port="0" />
		<edge from-layer="1771" from-port="1" to-layer="1780" to-port="0" />
		<edge from-layer="1772" from-port="0" to-layer="1778" to-port="0" />
		<edge from-layer="1772" from-port="0" to-layer="1779" to-port="0" />
		<edge from-layer="1773" from-port="1" to-layer="1779" to-port="1" />
		<edge from-layer="1774" from-port="1" to-layer="1775" to-port="0" />
		<edge from-layer="1775" from-port="1" to-layer="1777" to-port="0" />
		<edge from-layer="1776" from-port="0" to-layer="1777" to-port="1" />
		<edge from-layer="1777" from-port="2" to-layer="1778" to-port="1" />
		<edge from-layer="1778" from-port="2" to-layer="1779" to-port="2" />
		<edge from-layer="1779" from-port="3" to-layer="1780" to-port="1" />
		<edge from-layer="1780" from-port="2" to-layer="1781" to-port="1" />
		<edge from-layer="1781" from-port="2" to-layer="1782" to-port="0" />
		<edge from-layer="1782" from-port="1" to-layer="1783" to-port="1" />
		<edge from-layer="1783" from-port="2" to-layer="1821" to-port="0" />
		<edge from-layer="1783" from-port="2" to-layer="1784" to-port="0" />
		<edge from-layer="1784" from-port="2" to-layer="1787" to-port="0" />
		<edge from-layer="1785" from-port="0" to-layer="1786" to-port="0" />
		<edge from-layer="1786" from-port="1" to-layer="1787" to-port="1" />
		<edge from-layer="1787" from-port="2" to-layer="1792" to-port="0" />
		<edge from-layer="1787" from-port="2" to-layer="1799" to-port="0" />
		<edge from-layer="1788" from-port="0" to-layer="1789" to-port="0" />
		<edge from-layer="1789" from-port="1" to-layer="1791" to-port="0" />
		<edge from-layer="1789" from-port="1" to-layer="1798" to-port="0" />
		<edge from-layer="1790" from-port="0" to-layer="1796" to-port="0" />
		<edge from-layer="1790" from-port="0" to-layer="1797" to-port="0" />
		<edge from-layer="1791" from-port="1" to-layer="1797" to-port="1" />
		<edge from-layer="1792" from-port="1" to-layer="1793" to-port="0" />
		<edge from-layer="1793" from-port="1" to-layer="1795" to-port="0" />
		<edge from-layer="1794" from-port="0" to-layer="1795" to-port="1" />
		<edge from-layer="1795" from-port="2" to-layer="1796" to-port="1" />
		<edge from-layer="1796" from-port="2" to-layer="1797" to-port="2" />
		<edge from-layer="1797" from-port="3" to-layer="1798" to-port="1" />
		<edge from-layer="1798" from-port="2" to-layer="1799" to-port="1" />
		<edge from-layer="1799" from-port="2" to-layer="1800" to-port="0" />
		<edge from-layer="1800" from-port="1" to-layer="1803" to-port="0" />
		<edge from-layer="1801" from-port="0" to-layer="1802" to-port="0" />
		<edge from-layer="1802" from-port="1" to-layer="1803" to-port="1" />
		<edge from-layer="1803" from-port="2" to-layer="1808" to-port="0" />
		<edge from-layer="1803" from-port="2" to-layer="1815" to-port="0" />
		<edge from-layer="1804" from-port="0" to-layer="1805" to-port="0" />
		<edge from-layer="1805" from-port="1" to-layer="1807" to-port="0" />
		<edge from-layer="1805" from-port="1" to-layer="1814" to-port="0" />
		<edge from-layer="1806" from-port="0" to-layer="1812" to-port="0" />
		<edge from-layer="1806" from-port="0" to-layer="1813" to-port="0" />
		<edge from-layer="1807" from-port="1" to-layer="1813" to-port="1" />
		<edge from-layer="1808" from-port="1" to-layer="1809" to-port="0" />
		<edge from-layer="1809" from-port="1" to-layer="1811" to-port="0" />
		<edge from-layer="1810" from-port="0" to-layer="1811" to-port="1" />
		<edge from-layer="1811" from-port="2" to-layer="1812" to-port="1" />
		<edge from-layer="1812" from-port="2" to-layer="1813" to-port="2" />
		<edge from-layer="1813" from-port="3" to-layer="1814" to-port="1" />
		<edge from-layer="1814" from-port="2" to-layer="1815" to-port="1" />
		<edge from-layer="1815" from-port="2" to-layer="1820" to-port="0" />
		<edge from-layer="1816" from-port="0" to-layer="1817" to-port="0" />
		<edge from-layer="1817" from-port="1" to-layer="1820" to-port="1" />
		<edge from-layer="1818" from-port="0" to-layer="1819" to-port="0" />
		<edge from-layer="1819" from-port="1" to-layer="1820" to-port="2" />
		<edge from-layer="1820" from-port="3" to-layer="1821" to-port="1" />
		<edge from-layer="1821" from-port="2" to-layer="1824" to-port="0" />
		<edge from-layer="1822" from-port="0" to-layer="1823" to-port="0" />
		<edge from-layer="1823" from-port="1" to-layer="1824" to-port="1" />
		<edge from-layer="1824" from-port="2" to-layer="1829" to-port="0" />
		<edge from-layer="1824" from-port="2" to-layer="1836" to-port="0" />
		<edge from-layer="1825" from-port="0" to-layer="1826" to-port="0" />
		<edge from-layer="1826" from-port="1" to-layer="1835" to-port="0" />
		<edge from-layer="1826" from-port="1" to-layer="1828" to-port="0" />
		<edge from-layer="1827" from-port="0" to-layer="1833" to-port="0" />
		<edge from-layer="1827" from-port="0" to-layer="1834" to-port="0" />
		<edge from-layer="1828" from-port="1" to-layer="1834" to-port="1" />
		<edge from-layer="1829" from-port="1" to-layer="1830" to-port="0" />
		<edge from-layer="1830" from-port="1" to-layer="1832" to-port="0" />
		<edge from-layer="1831" from-port="0" to-layer="1832" to-port="1" />
		<edge from-layer="1832" from-port="2" to-layer="1833" to-port="1" />
		<edge from-layer="1833" from-port="2" to-layer="1834" to-port="2" />
		<edge from-layer="1834" from-port="3" to-layer="1835" to-port="1" />
		<edge from-layer="1835" from-port="2" to-layer="1836" to-port="1" />
		<edge from-layer="1836" from-port="2" to-layer="1847" to-port="0" />
		<edge from-layer="1836" from-port="2" to-layer="1860" to-port="0" />
		<edge from-layer="1837" from-port="0" to-layer="1838" to-port="0" />
		<edge from-layer="1838" from-port="1" to-layer="1840" to-port="0" />
		<edge from-layer="1838" from-port="1" to-layer="1846" to-port="0" />
		<edge from-layer="1839" from-port="0" to-layer="1844" to-port="1" />
		<edge from-layer="1839" from-port="0" to-layer="1845" to-port="0" />
		<edge from-layer="1840" from-port="1" to-layer="1843" to-port="0" />
		<edge from-layer="1841" from-port="0" to-layer="1843" to-port="1" />
		<edge from-layer="1842" from-port="0" to-layer="1843" to-port="2" />
		<edge from-layer="1843" from-port="3" to-layer="1844" to-port="0" />
		<edge from-layer="1843" from-port="4" to-layer="1845" to-port="2" />
		<edge from-layer="1844" from-port="2" to-layer="1845" to-port="1" />
		<edge from-layer="1845" from-port="3" to-layer="1846" to-port="1" />
		<edge from-layer="1846" from-port="2" to-layer="1847" to-port="1" />
		<edge from-layer="1847" from-port="2" to-layer="1852" to-port="0" />
		<edge from-layer="1847" from-port="2" to-layer="1859" to-port="0" />
		<edge from-layer="1848" from-port="0" to-layer="1849" to-port="0" />
		<edge from-layer="1849" from-port="1" to-layer="1851" to-port="0" />
		<edge from-layer="1849" from-port="1" to-layer="1858" to-port="0" />
		<edge from-layer="1850" from-port="0" to-layer="1856" to-port="0" />
		<edge from-layer="1850" from-port="0" to-layer="1857" to-port="0" />
		<edge from-layer="1851" from-port="1" to-layer="1857" to-port="1" />
		<edge from-layer="1852" from-port="1" to-layer="1853" to-port="0" />
		<edge from-layer="1853" from-port="1" to-layer="1855" to-port="0" />
		<edge from-layer="1854" from-port="0" to-layer="1855" to-port="1" />
		<edge from-layer="1855" from-port="2" to-layer="1856" to-port="1" />
		<edge from-layer="1856" from-port="2" to-layer="1857" to-port="2" />
		<edge from-layer="1857" from-port="3" to-layer="1858" to-port="1" />
		<edge from-layer="1858" from-port="2" to-layer="1859" to-port="1" />
		<edge from-layer="1859" from-port="2" to-layer="1860" to-port="1" />
		<edge from-layer="1860" from-port="2" to-layer="1861" to-port="0" />
		<edge from-layer="1861" from-port="2" to-layer="1864" to-port="0" />
		<edge from-layer="1862" from-port="0" to-layer="1863" to-port="0" />
		<edge from-layer="1863" from-port="1" to-layer="1864" to-port="1" />
		<edge from-layer="1864" from-port="2" to-layer="1869" to-port="0" />
		<edge from-layer="1864" from-port="2" to-layer="1876" to-port="0" />
		<edge from-layer="1865" from-port="0" to-layer="1866" to-port="0" />
		<edge from-layer="1866" from-port="1" to-layer="1868" to-port="0" />
		<edge from-layer="1866" from-port="1" to-layer="1875" to-port="0" />
		<edge from-layer="1867" from-port="0" to-layer="1873" to-port="0" />
		<edge from-layer="1867" from-port="0" to-layer="1874" to-port="0" />
		<edge from-layer="1868" from-port="1" to-layer="1874" to-port="1" />
		<edge from-layer="1869" from-port="1" to-layer="1870" to-port="0" />
		<edge from-layer="1870" from-port="1" to-layer="1872" to-port="0" />
		<edge from-layer="1871" from-port="0" to-layer="1872" to-port="1" />
		<edge from-layer="1872" from-port="2" to-layer="1873" to-port="1" />
		<edge from-layer="1873" from-port="2" to-layer="1874" to-port="2" />
		<edge from-layer="1874" from-port="3" to-layer="1875" to-port="1" />
		<edge from-layer="1875" from-port="2" to-layer="1876" to-port="1" />
		<edge from-layer="1876" from-port="2" to-layer="1877" to-port="0" />
		<edge from-layer="1877" from-port="1" to-layer="1879" to-port="0" />
		<edge from-layer="1878" from-port="0" to-layer="1879" to-port="1" />
		<edge from-layer="1879" from-port="2" to-layer="1882" to-port="0" />
		<edge from-layer="1880" from-port="0" to-layer="1881" to-port="0" />
		<edge from-layer="1881" from-port="1" to-layer="1882" to-port="1" />
		<edge from-layer="1882" from-port="2" to-layer="1887" to-port="0" />
		<edge from-layer="1882" from-port="2" to-layer="1894" to-port="0" />
		<edge from-layer="1883" from-port="0" to-layer="1884" to-port="0" />
		<edge from-layer="1884" from-port="1" to-layer="1886" to-port="0" />
		<edge from-layer="1884" from-port="1" to-layer="1893" to-port="0" />
		<edge from-layer="1885" from-port="0" to-layer="1891" to-port="0" />
		<edge from-layer="1885" from-port="0" to-layer="1892" to-port="0" />
		<edge from-layer="1886" from-port="1" to-layer="1892" to-port="1" />
		<edge from-layer="1887" from-port="1" to-layer="1888" to-port="0" />
		<edge from-layer="1888" from-port="1" to-layer="1890" to-port="0" />
		<edge from-layer="1889" from-port="0" to-layer="1890" to-port="1" />
		<edge from-layer="1890" from-port="2" to-layer="1891" to-port="1" />
		<edge from-layer="1891" from-port="2" to-layer="1892" to-port="2" />
		<edge from-layer="1892" from-port="3" to-layer="1893" to-port="1" />
		<edge from-layer="1893" from-port="2" to-layer="1894" to-port="1" />
		<edge from-layer="1894" from-port="2" to-layer="1895" to-port="0" />
		<edge from-layer="1895" from-port="1" to-layer="1897" to-port="0" />
		<edge from-layer="1896" from-port="0" to-layer="1897" to-port="1" />
		<edge from-layer="1897" from-port="2" to-layer="1900" to-port="0" />
		<edge from-layer="1898" from-port="0" to-layer="1899" to-port="0" />
		<edge from-layer="1899" from-port="1" to-layer="1900" to-port="1" />
		<edge from-layer="1900" from-port="2" to-layer="1903" to-port="0" />
		<edge from-layer="1901" from-port="0" to-layer="1902" to-port="0" />
		<edge from-layer="1902" from-port="1" to-layer="1903" to-port="1" />
		<edge from-layer="1903" from-port="2" to-layer="1909" to-port="0" />
		<edge from-layer="1904" from-port="0" to-layer="1905" to-port="0" />
		<edge from-layer="1905" from-port="1" to-layer="1908" to-port="0" />
		<edge from-layer="1906" from-port="0" to-layer="1907" to-port="0" />
		<edge from-layer="1907" from-port="1" to-layer="1908" to-port="1" />
		<edge from-layer="1908" from-port="2" to-layer="1909" to-port="1" />
		<edge from-layer="1909" from-port="2" to-layer="1910" to-port="0" />
	</edges>
	<rt_info />
</net>
